architecture_experiments/advanced_gat_model.pt (torch, 69730 bytes, 28 tensors)

input_lin.weight f4 [64, 15]
0	0x3b819178	0.003954109
1	0x3e197118	0.14984548
2	0xbccae27a	-0.024766196
3	0x3f0ef9bb	0.5584981
4	0x3d8980bd	0.06714008
5	0xbe119032	-0.14215162
6	0x3cea01ce	0.028565314
7	0x3db06348	0.086126864
8	0xbb99b2e0	-0.004690513
9	0x3db59da6	0.0886796
10	0xbd5250c3	-0.05134655
11	0x3d5cc628	0.053899914
12	0xbdf40105	-0.11914257
13	0x3dfb2410	0.12262738
14	0xbe8248bf	-0.25446126
15	0x3e4c55ea	0.19954649
16	0x3dfd94b4	0.123818785
17	0xbe4d482a	-0.2004706
18	0xbe62aab3	-0.22135429
19	0xbda16be3	-0.07881906
20	0xbeba7a48	-0.36421418
21	0x3e18a958	0.1490835
22	0x3db5eafd	0.08882711
23	0x3c8b1d8a	0.016981859
24	0x3e64ffbb	0.22363178
25	0xbde782f0	-0.11304271
26	0xbca5c680	-0.020236254
27	0x3d89e955	0.06733958
28	0x3e0fb239	0.1403283
29	0x3b916a92	0.004437753
30	0xbe25172c	-0.1612212
31	0x3e31613e	0.17322251
32	0x3d895e38	0.06707424
33	0xbdd368de	-0.10322736
34	0x3dbfea47	0.09370857
35	0x3d0898fd	0.033349026
36	0xbdb94d4a	-0.09047945
37	0xbe1518fb	-0.1456031
38	0x3c6f1ecb	0.014594744
39	0xbce4b5ac	-0.02791866
40	0xbd32b2f6	-0.0436277
41	0xbd57d79c	-0.052695855
42	0xbe506747	-0.20351897
43	0xbeaaff4b	-0.33397898
44	0x3e126176	0.14294991
45	0xbda6df43	-0.081480525
46	0xbcf35f26	-0.029708456
47	0x3dcd86bc	0.10035464
48	0xbe0a0690	-0.13479066
49	0x3ddff619	0.10935611
50	0x3eae68c7	0.34064314
51	0xbda3c4cc	-0.079965204
52	0xbdaca987	-0.08430772
53	0xbc1bb766	-0.009504175
54	0xbe43adb0	-0.19109225
55	0x3d886900	0.06660652
56	0xbdb63011	-0.08895887
57	0xbe21ea69	-0.15812077
58	0xbed3c335	-0.4135987
59	0x3e6f7cab	0.23387401
60	0x3e15cd2a	0.14629045
61	0xbe159a07	-0.14609538
62	0xbde7c794	-0.113173634
63	0x3e40910e	0.18805334
64	0x3cefe819	0.029285477
65	0xbe27253d	-0.16322799
66	0x3d03b9ef	0.032159742
67	0xbc789c0e	-0.015173925
68	0x3e5bb919	0.21457328
69	0x3e3e3dd8	0.18578279
70	0x3e79d6f8	0.2439841
71	0x3d0f21a0	0.034944177
72	0xbdaf18e5	-0.0854967
73	0x3e9094b5	0.28238454
74	0x3c0903a4	0.008362684
75	0x3d1dd1b6	0.038530074
76	0x3d853063	0.0650337
77	0x3db1171c	0.08646986
78	0x3c6bbbf4	0.014388073
79	0xbdc9d143	-0.09854367
80	0xbdbbbd5c	-0.09166977
81	0xbca34540	-0.019930482
82	0x3d92a402	0.07160188
83	0xbd055e21	-0.03256047
84	0x3e449013	0.19195585
85	0xbe18ef9c	-0.14935154
86	0x3da3d46e	0.07999502
87	0x3e059e4e	0.1304867
88	0x3f3b2dad	0.7311657
89	0x3dabc33d	0.08386848
90	0xbda75da6	-0.08172159
91	0x3e791d9c	0.24327701
92	0x3de089ef	0.10963809
93	0xbe9890d0	-0.29797983
94	0xbd9c5d05	-0.076349296
95	0xbde6ad96	-0.11263578
96	0xbd9fd266	-0.07803802
97	0x3d2d0d2a	0.042248882
98	0x3c00981f	0.0078487685
99	0xbd6f88c6	-0.058480047
100	0xbd071bc8	-0.03298548
101	0xbcad26fa	-0.02113675
102	0x3e143f81	0.1447735
103	0xbe402b38	-0.18766487
104	0xbc81a118	-0.015823886
105	0xbdf75dd8	-0.12078446
106	0x3ea49845	0.32147422
107	0x3e917c3e	0.28415102
108	0xbe5cfc28	-0.21580565
109	0xbc3e4ee3	-0.011615488
110	0xbe17af59	-0.14812984
111	0xbdb90377	-0.09033864
112	0xbd92f880	-0.07176304
113	0xbd8b3798	-0.06797713
114	0xbdcf64c2	-0.1012664
115	0xbdb91071	-0.09036339
116	0xbc392c17	-0.011302016
117	0x3c931212	0.017952953
118	0x3e83fec6	0.25780314
119	0x3e6a2198	0.22864377
120	0x3e074984	0.13211638
121	0x3e131a3a	0.14365473
122	0x3d769e9f	0.060209867
123	0xbe1069ab	-0.14102809
124	0x3e364f9c	0.17803806
125	0x3e60d850	0.21957517
126	0xbe0a3b90	-0.13499284
127	0xbe1cf00f	-0.1532595
128	0xbd98c9b8	-0.0746035
129	0xbde8abe6	-0.11360912
130	0xbe0bb0bd	-0.13641639
131	0x3d348e93	0.044081282
132	0x3de172a3	0.11008193
133	0x3e48922c	0.1958701
134	0xbe75b0ae	-0.23993179
135	0xbdc91ec3	-0.098203205
136	0xbd4d6e69	-0.050154123
137	0x3c1184d5	0.008881767
138	0xbd9339fd	-0.07188795
139	0xbe1fe9d2	-0.15616539
140	0xbe3c7029	-0.1840216
141	0xbe002c5f	-0.12516926
142	0xbdeb754e	-0.114969835
143	0xbbb6eafa	-0.0055822106
144	0xbdc1e1c6	-0.09466891
145	0xbd3d311e	-0.04618942
146	0xbe0ad9dc	-0.1355967
147	0x3e38aaf5	0.18033965
148	0xbf0ee1d5	-0.5581334
149	0x3e4ed761	0.20199348
150	0xbe65fd08	-0.22459805
151	0xbc005d3c	-0.007834729
152	0xbdd5ab9f	-0.10433125
153	0xbbfe314a	-0.0077573406
154	0x3e13f43e	0.1444864
155	0x3e249282	0.16071513
156	0x3ba0651a	0.0048948647
157	0x3b4adc5d	0.00309541
158	0xbdee48e0	-0.116349936
159	0xbdd20039	-0.10253949
160	0xbdea2213	-0.114322804
161	0xbc6f8a38	-0.014620356
162	0xbe5d44c3	-0.21608262
163	0xbd9586aa	-0.07301076
164	0x3db88a14	0.09010711
165	0xbe74a251	-0.23890044
166	0x3ea0ef50	0.3143258
167	0xbe085566	-0.13313827
168	0xbdc904b8	-0.09815353
169	0xbd62a638	-0.0553343
170	0xbe50338d	-0.20332165
171	0xbe02ae5c	-0.12761825
172	0xbdbfc8dd	-0.093644835
173	0x3d68adfb	0.056806546
174	0x3d526cc4	0.05137326
175	0xbc07c35f	-0.008286326
176	0xbc0701c8	-0.008240171
177	0x3b6a1692	0.003571902
178	0xbd906ab8	-0.07051605
179	0xbda72b76	-0.081625864
180	0x3e5ea6af	0.21743272
181	0xbdd613f4	-0.104530245
182	0x3e26a5a0	0.16274118
183	0x3cd7b2b8	0.026330337
184	0x3e1e2846	0.1544505
185	0x3d62a1db	0.05533014
186	0xbd2e13f6	-0.042499505
187	0xbd515c0a	-0.051113166
188	0x3c8f9369	0.017526345
189	0xbd89a90b	-0.067216955
190	0x3cb3ebb5	0.02196298
191	0xbb3c61c5	-0.0028744799
192	0xbdf49af9	-0.11943621
193	0xbdc6a429	-0.0969928
194	0xbd28ace8	-0.04118052
195	0x3ddfc68e	0.10926543
196	0x3d9a12e0	0.07523131
197	0xbd7dfb1b	-0.06200705
198	0x3e05ee8e	0.13079283
199	0xbb728a1f	-0.0037008596
200	0x3df90a88	0.12160212
201	0x3c5be83b	0.013422067
202	0xbe3934c2	-0.18086532
203	0xbc93a20b	-0.018021604
204	0xbd0ea501	-0.03482533
205	0xbdec5b32	-0.115408316
206	0xbdc9c56e	-0.0985211
207	0x3e61ad86	0.2203885
208	0xbf61351b	-0.8797166
209	0xbe23f096	-0.16009745
210	0xbd9891e6	-0.07449703
211	0x3e9e4763	0.3091384
212	0xbd6a47a8	-0.057197243
213	0xbe6c05b8	-0.23049057
214	0xbd4ace17	-0.04951295
215	0xbec72ae4	-0.3889991
216	0x3de85b60	0.113455534
217	0xbde58d61	-0.112086065
218	0x3e6a1033	0.22857742
219	0x3e6c6ca9	0.23088326
220	0x3e86152b	0.26188025
221	0x3c2f348d	0.010693681
222	0x3d96cdf9	0.07363505
223	0x3d5fd908	0.054650337
224	0xbdacfdcb	-0.08446845
225	0x3e648419	0.22316016
226	0x3e1546b2	0.1457775
227	0x3e13dcc7	0.14439689
228	0xbeb42869	-0.3518708
229	0x3c61c176	0.013779035
230	0xbe8574cc	-0.2606567
231	0xbd7f55be	-0.06233763
232	0xbdbb3977	-0.0914182
233	0x3e8848c6	0.26618022
234	0x3e35a8b4	0.17740136
235	0x3e8349fc	0.25642383
236	0xbcada934	-0.021198846
237	0xbe022269	-0.12708439
238	0xbd3db1e0	-0.046312213
239	0xbe0fc1d9	-0.14038791
240	0x3d81357a	0.06309028
241	0x3e0fb0e1	0.14032318
242	0x3db81769	0.0898884
243	0xbe15a4a5	-0.14613588
244	0xbe6a04a0	-0.22853327
245	0x3d0c5f1a	0.034270383
246	0xbb330bfd	-0.0027320378
247	0x3e057125	0.13031442
248	0xbd534d5f	-0.05158746
249	0xbdb73a58	-0.08946675
250	0xbc3dbd15	-0.011580725
251	0xbd1e1cb9	-0.03860161
252	0xbc1f6dd7	-0.009730778
253	0xbe98d8c9	-0.29852894
254	0x3d14ccb4	0.036328033
255	0x3e82a175	0.25513807

input_lin.bias f4 [64]
0	0x3e35f126	0.17767772
1	0xbd30d9ee	-0.043176584
2	0x3dcf8ac2	0.10133888
3	0xbdb35db4	-0.08758107
4	0xbdf964fe	-0.12177466
5	0xbe3cc950	-0.1843617
6	0x3d1b5565	0.037923235
7	0xbe15d60c	-0.14632434
8	0xbdeee0b7	-0.11663955
9	0xbe09d2da	-0.1345934
10	0x3d86707a	0.06564422
11	0x3de1b9a5	0.11021737
12	0xbdb9d07e	-0.0907297
13	0xbde295b1	-0.110637076
14	0x3d30a219	0.04312334
15	0x3e51e62d	0.20497961
16	0x3de5b7bd	0.11216686
17	0x3dea5ce7	0.11443501
18	0x3dcf618c	0.101260275
19	0x3e05bc48	0.13060105
20	0x3e0bfc58	0.1367048
21	0x3bcf7d6f	0.0063320915
22	0xbe5bbbc3	-0.21458344
23	0x3d7eee86	0.062239192
24	0x3e1794c9	0.14802851
25	0x3e1b5866	0.1517044
26	0x3dc5fbab	0.096671425
27	0x3d5141bd	0.051088084
28	0xbd78b63f	-0.06072068
29	0x3d6bf921	0.057610635
30	0xbd5870b3	-0.052841853
31	0x3e2a0d8d	0.16606732
32	0x3dd8c4c5	0.10584406
33	0x3e5924c2	0.21205428
34	0x3d8a08c7	0.067399554
35	0x3cce096c	0.025150977
36	0x3e294565	0.16530378
37	0x3e333e5f	0.17504261
38	0xbd96e96b	-0.0736874
39	0x3de02932	0.109453574
40	0xbdc03f24	-0.09387043
41	0x3d300221	0.04297078
42	0xbe31d984	-0.17368132
43	0x3da99d7e	0.082819924
44	0x3d472b79	0.048625443
45	0x3ccddc11	0.02512935
46	0x3c04b607	0.008100039
47	0xbd7e12ad	-0.06202953
48	0xbd84f924	-0.06492832
49	0x3cf981c7	0.03045739
50	0x3c5e6609	0.013574132
51	0xbd261e2a	-0.04055611
52	0xbc1664ea	-0.009179333
53	0xbde6ddb8	-0.11272758
54	0x3cac786b	0.021053514
55	0xbe6d255e	-0.23158786
56	0x3e206e4f	0.1566708
57	0x3e3f34e8	0.18672526
58	0x3e81084b	0.2520164
59	0xbd88c117	-0.06677454
60	0xbd51832e	-0.051150493
61	0xbe0e8bdb	-0.13920538
62	0x3df4700f	0.11935436
63	0xbb9c55b8	-0.0047709607

layers.0.gat.att_src f4 [1, 4, 16]
0	0xbdc49d99	-0.09600372
1	0x3e0d3f20	0.13793612
2	0xbd05e7d0	-0.032691777
3	0xbe4b08f4	-0.19827634
4	0xbf9e7a63	-1.23811
5	0x3e8ce38d	0.27517357
6	0x3e17540b	0.14778154
7	0x3e760802	0.24026492
8	0xbdef2806	-0.11677556
9	0xbeafdf20	-0.34349918
10	0xbea157ba	-0.31512243
11	0x3d188c93	0.037243437
12	0x3e9a9e48	0.30198884
13	0x3d78f1b3	0.060777377
14	0x3e46f9f2	0.19431284
15	0x3e88fbab	0.26754507
16	0xbe64afe2	-0.22332719
17	0x3d8b6215	0.06805817
18	0x3e6ac22e	0.22925636
19	0xbd74fbac	-0.059810326
20	0xbe374f45	-0.17901333
21	0xbe39ec7c	-0.18156618
22	0xbdd3c8f9	-0.10341067
23	0x3ddc0d36	0.10744707
24	0xbea4505b	-0.32092556
25	0xbded7457	-0.11594456
26	0xbd95dbba	-0.073173
27	0xbe32670d	-0.17422123
28	0x3c88c913	0.016697442
29	0x3d8e5d21	0.06951357
30	0xbe3436be	-0.17599007
31	0xbe02c38a	-0.12769905
32	0xbe47c445	-0.19508465
33	0xbeb1b82f	-0.34710833
34	0x3d57b093	0.05265863
35	0xbe0789aa	-0.13236108
36	0x3e993831	0.29925683
37	0xbea0cca4	-0.31406128
38	0x3dbbf590	0.09177697
39	0xbd6f279e	-0.05838739
40	0x3ea6db0e	0.32589
41	0x3e6d5bd7	0.23179565
42	0xbea6e3ff	-0.32595822
43	0xbd9aa97a	-0.07551856
44	0x3e4cd7a0	0.2000413
45	0x3eaea8a4	0.34113038
46	0x3def4173	0.11682405
47	0x3f2372d8	0.6384711
48	0x3df67dc7	0.12035709
49	0x3d58e0cc	0.052948758
50	0xbcd192ef	-0.025582759
51	0xbc4c0d2a	-0.01245431
52	0x3dbdc40e	0.0926591
53	0x3e5bba66	0.21457824
54	0xbe3411ae	-0.1758487
55	0x3d56bce5	0.052426238
56	0xbda433ba	-0.080176786
57	0xbd3fd33b	-0.046832304
58	0x3d8bb54e	0.068216905
59	0xbd000285	-0.031252403
60	0xbd1cba13	-0.03826339
61	0xbe4660a9	-0.1937281
62	0xbe657f8c	-0.22411937
63	0xbe1fc1be	-0.1560125

layers.0.gat.att_dst f4 [1, 4, 16]
0	0x3d8fd79f	0.07023548
1	0xbd800da9	-0.062526055
2	0xbd5a33bd	-0.053271998
3	0x3e0bce40	0.13652897
4	0x3e0c2c31	0.13688733
5	0xbe2e9152	-0.17047623
6	0xbdd95013	-0.10610976
7	0xbe6c414e	-0.23071787
8	0xbda40217	-0.08008211
9	0x3e76095f	0.24027012
10	0x3e882ed2	0.2659822
11	0xbdb07b68	-0.08617288
12	0x3e0e1f5e	0.13879153
13	0xbdc2ff0e	-0.09521304
14	0xbe4196b7	-0.1890515
15	0xbd7f4478	-0.062321156
16	0x3b28d0b4	0.0025759162
17	0x3ab175ba	0.0013539114
18	0x38c3b63c	9.3322684e-05
19	0x3a560280	0.00081638247
20	0xb9ee2d12	-0.00045428477
21	0xbb25427d	-0.0025216632
22	0xbb0748eb	-0.0020642828
23	0x39361d7a	0.00017367853
24	0xbb3c007a	-0.0028686807
25	0xbaa6c6b6	-0.0012724015
26	0xba80e45d	-0.0009833683
27	0xba56702c	-0.0008180167
28	0xbad01544	-0.0015875478
29	0x3ae4f947	0.001746931
30	0x399668c8	0.00028688298
31	0x3a85e39c	0.0010214928
32	0x3d5a9346	0.053363107
33	0x3e8b9e74	0.27269328
34	0x3c316bfa	0.010828966
35	0xbd0dcd3b	-0.03461955
36	0xbc958d08	-0.018255726
37	0x3dad795a	0.084704116
38	0xbd680139	-0.05664179
39	0x3deb9b55	0.115042366
40	0xbda5b2c1	-0.08090735
41	0xbdc6a7a7	-0.09699946
42	0x3dce690f	0.10078632
43	0x3dc56d91	0.09640039
44	0xbd3ee044	-0.046600595
45	0xbdfae313	-0.12250342
46	0xbdb64056	-0.0889899
47	0xbe3217bc	-0.17391866
48	0xbc9a8eef	-0.018866984
49	0x3d52dbd8	0.05147919
50	0xbd601d6f	-0.05471557
51	0x3c1bd5bd	0.009511408
52	0xbc8eb1bf	-0.01741874
53	0xbcf5a956	-0.029987972
54	0x3d1fb973	0.038995218
55	0xbd21e964	-0.03952922
56	0xbd67bfdf	-0.056579467
57	0xbbba3b7a	-0.0056833597
58	0x3a58ce9d	0.0008270534
59	0x3d1edfdb	0.038787704
60	0x3dbb6453	0.09149995
61	0xbc4d005b	-0.012512292
62	0x3d28dc3a	0.04122565
63	0x3d290a6e	0.041269712

layers.0.gat.att_edge f4 [1, 4, 16]
0	0xbefe1daf	-0.49632022
1	0xbe0e8e53	-0.1392148
2	0xbd5b5ec4	-0.053557172
3	0x3e8047c1	0.25054744
4	0xbe7dc76b	-0.24783103
5	0x3eba2096	0.36352986
6	0x3eda0f44	0.42589772
7	0xbd921a22	-0.07133891
8	0x3ebc3559	0.3675945
9	0x3d4a2cff	0.049359318
10	0x3e062c98	0.13102949
11	0xbe4943c3	-0.19654755
12	0xbead7831	-0.3388076
13	0x3ec1eb18	0.37874675
14	0xbeb11a26	-0.34590262
15	0xbdbe5cef	-0.092950694
16	0xbf503052	-0.8132373
17	0xbeb1cf45	-0.34728447
18	0x3e2fbbf7	0.17161547
19	0x3f444c5d	0.7667902
20	0xbd47867f	-0.04871225
21	0x3ef16553	0.47147617
22	0xbf3507e1	-0.7071515
23	0xbea82a0e	-0.32844585
24	0xbea9aeb2	-0.33141094
25	0x3f2b2efa	0.66868556
26	0xbec05720	-0.3756647
27	0xbf54571d	-0.82945424
28	0xbf45f2ba	-0.77323496
29	0xbe36ad01	-0.17839433
30	0xbefec216	-0.4975745
31	0xbf48be48	-0.78415346
32	0xbc14284c	-0.009042811
33	0xbd53d7cd	-0.051719476
34	0x3966cdee	0.00022011224
35	0xbe569fbe	-0.20959374
36	0x3e235151	0.15948988
37	0x3e80e83a	0.25177175
38	0x3be96d54	0.0071236286
39	0x3edd3611	0.43205312
40	0xbe16a9f4	-0.1471327
41	0xbed23453	-0.41055545
42	0x3ee69093	0.45032176
43	0xb91ce72f	-0.00014963442
44	0x3e8dc5e2	0.27690035
45	0xbebe46c1	-0.37163356
46	0x3e3617b4	0.1778248
47	0xbe471363	-0.19440989
48	0x33b67ded	8.497941e-08
49	0x0017c277	2.181977e-39
50	0x80048579	-4.15223e-40
51	0x0a18b6e5	7.3529324e-33
52	0x801c64ac	-2.607508e-39
53	0x0ce50579	3.528633e-31
54	0xaf5c2a5c	-2.0023933e-10
55	0x80141208	-1.843178e-39
56	0x000e7eae	1.331141e-39
57	0x8002e6cf	-2.6647e-40
58	0x00116e03	1.600668e-39
59	0x199bda8f	1.61149e-23
60	0x80164dd2	-2.048298e-39
61	0x0015f2e3	2.015677e-39
62	0x0033329e	4.701768e-39
63	0x00c28d4b	1.7866773e-38

layers.0.gat.bias f4 [64]
0	0x3d144167	0.036195185
1	0x3d83f080	0.06442356
2	0xbbbe4767	-0.0058068517
3	0x3ca2cc11	0.019872697
4	0x3d7303c4	0.059329763
5	0x3d878cf7	0.06618684
6	0x3d405728	0.04695812
7	0x3c8680b7	0.016418798
8	0x3abcb6c4	0.001439773
9	0xbce2034f	-0.027589468
10	0xbd2292d9	-0.039690826
11	0x3ba44b3b	0.005013851
12	0x3ca1e7a1	0.01976377
13	0x3d93e994	0.07222286
14	0x3d90ee03	0.07076647
15	0x3dd233db	0.10263797
16	0x3c85601d	0.016281182
17	0x3cc33fbb	0.0238341
18	0x3d55274e	0.052039437
19	0xbce1ed57	-0.027578993
20	0xbc21ebce	-0.00988288
21	0xbd00515d	-0.031327594
22	0x3d0ac60c	0.03388028
23	0x3d0802a1	0.033205632
24	0x3ad8e919	0.0016548961
25	0xbd8c8390	-0.06861031
26	0xbd0432be	-0.032274954
27	0xbb25b4b6	-0.0025284714
28	0x3d08d66c	0.033407614
29	0x3d7f02be	0.062258475
30	0x3c85b98a	0.016323823
31	0x3d0d827c	0.034548268
32	0x3881be1c	6.18661e-05
33	0xbde0b336	-0.10971682
34	0x3cec6b13	0.02885965
35	0xbd9932d8	-0.07480401
36	0x3d6a6396	0.05722388
37	0x3d7f53e7	0.062335875
38	0x3ca7f253	0.020501291
39	0xbc958a51	-0.018254431
40	0x3c1b4d81	0.009478928
41	0x3d76f46e	0.0602917
42	0xbcb06580	-0.021532774
43	0x3cc9d278	0.024636492
44	0xbc141836	-0.009038975
45	0x3d0916cd	0.03346901
46	0x3d8d3690	0.068951726
47	0x3d58502c	0.052810833
48	0x3cd6a525	0.026201794
49	0xbd575515	-0.052571375
50	0xbcd91fda	-0.026504446
51	0x3d39c557	0.045354214
52	0x3ccae264	0.024766155
53	0xbc979c74	-0.01850722
54	0xbcdfbc51	-0.027311476
55	0x3cff81a0	0.03118974
56	0xbc08b1d8	-0.0083431825
57	0x3d507fdf	0.050903197
58	0xbc1dcdea	-0.009631613
59	0x3d9f5063	0.077790044
60	0xbac23f44	-0.001481988
61	0xbc24486d	-0.010027033
62	0x3cf1ff32	0.029540632
63	0x3d2a1f49	0.041533742

layers.0.gat.lin.weight f4 [64, 64]
0	0x3cb47529	0.022028523
1	0xbcf5f6fb	-0.030024996
2	0x3b9399d7	0.004504423
3	0xbd01f696	-0.031729303
4	0xbdd53584	-0.10410598
5	0xbcc755f7	-0.024332983
6	0xbd53b835	-0.051689345
7	0x3a5a6739	0.00083314214
8	0xbd559c95	-0.05215128
9	0xbd333afe	-0.04375743
10	0x3d2f1f31	0.042754356
11	0x3d624fa7	0.055251744
12	0xbe054829	-0.13015808
13	0x3cd44ef8	0.025916561
14	0xbcf90c3a	-0.030401338
15	0xbd0c1236	-0.034197055
16	0xbb3d1ea1	-0.0028857368
17	0x3d011d7b	0.031522255
18	0xbc5f9d88	-0.013648398
19	0xbb6c4afa	-0.0036055432
20	0x3d33e5a0	0.04392016
21	0xbcdd66f8	-0.027026638
22	0xba93ffc2	-0.0011291432
23	0xbd3de704	-0.04636289
24	0x3d735eed	0.0594167
25	0xbc9257de	-0.017864164
26	0x3c7c4d57	0.015399299
27	0xbcf8514b	-0.030312201
28	0xbce2ed7f	-0.027701138
29	0x3bfb1b5a	0.0076631727
30	0x3cc7bfd6	0.024383467
31	0x3d0de684	0.034643665
32	0x3d82dec6	0.06390147
33	0x3ca24560	0.019808471
34	0x3d963fde	0.073364004
35	0xbcb4be80	-0.022063494
36	0x3d9c4591	0.07630456
37	0xbdeb8379	-0.11499686
38	0xbd429098	-0.047501177
39	0xbd68212a	-0.056672253
40	0xbd66662f	-0.056249794
41	0x3da912d8	0.08255547
42	0xbc3b9c57	-0.011450849
43	0x3d4f143c	0.050556406
44	0x3d4740f5	0.048645932
45	0x3d20ac60	0.03922689
46	0xbbb756f0	-0.0055950806
47	0xbdccc739	-0.09998936
48	0xbdb83bbf	-0.08995771
49	0x3cf64cf4	0.030065991
50	0x3d28e72c	0.041236088
51	0x3cabd6a6	0.020976376
52	0xbdaa08a9	-0.08302433
53	0xbc9afaca	-0.018918414
54	0x3d49a46e	0.049229078
55	0x3d4c665b	0.0499023
56	0xbd98ae1c	-0.07455084
57	0xbd8997a1	-0.06718374
58	0x3d32bd1e	0.043637387
59	0x3d90319d	0.07040713
60	0x3db5d743	0.088789485
61	0x3dcbe5ca	0.09955938
62	0xbbe93d11	-0.0071178754
63	0xbd09059b	-0.03345261
64	0x3d0873c5	0.03331353
65	0xbe09ec52	-0.13469055
66	0xbca69de2	-0.020338956
67	0xbcaa2d30	-0.0207735
68	0x3d32b764	0.043631926
69	0xbb6dbd8b	-0.0036276306
70	0xbd97b0b9	-0.07406754
71	0xbd2b73b1	-0.04185838
72	0xbd114aae	-0.03547161
73	0x3cdf043f	0.027223704
74	0x3d2dffaa	0.04248015
75	0xbd4320c0	-0.047638655
76	0x3d810f99	0.06301803
77	0x3d8d69e8	0.06904966
78	0xbc396456	-0.011315426
79	0xbc72cd43	-0.014819446
80	0xbd200902	-0.03907109
81	0x3ca20ef3	0.019782519
82	0x3c061bf6	0.008185377
83	0xbcd40099	-0.025879191
84	0xbc6b3704	-0.0143563785
85	0xbc832358	-0.016008064
86	0xbb86fb97	-0.0041193473
87	0xbd9b366a	-0.07578738
88	0xbc86a5ab	-0.016436419
89	0x3c6cfaf4	0.014464129
90	0xbc16d3be	-0.009205757
91	0xbd1ed364	-0.038775817
92	0x3c1cbde9	0.0095667625
93	0x3cd55a76	0.026044112
94	0x3d9bcdd0	0.07607615
95	0xbd0c57b5	-0.03426333
96	0x3c0dfac5	0.008665745
97	0x3a6c5bb7	0.0009016352
98	0xb9ff43ba	-0.0004868785
99	0xbdfd990d	-0.12382708
100	0x3d19cf87	0.03755143
101	0x3d0638eb	0.032769125
102	0xbcea6b7c	-0.028615706
103	0xbcf6012c	-0.030029856
104	0xbd65b700	-0.056082726
105	0xbd209850	-0.039207757
106	0x3cd9ac42	0.026571397
107	0x3d05b474	0.032642797
108	0x3a873c81	0.0010317714
109	0xbd4f0a41	-0.05054689
110	0x3ca8088e	0.020511892
111	0x3db47672	0.08811654
112	0xbcf577dc	-0.02996438
113	0xbd5c95ac	-0.053853676
114	0xbdb96979	-0.090533204
115	0xbd9b0288	-0.07568842
116	0xbd4e3fcd	-0.050353814
117	0x3cd35727	0.025798393
118	0xbd134cb6	-0.03596183
119	0x3e09d3f7	0.13459764
120	0xbce6cfcc	-0.028175257
121	0x3da01761	0.07816959
122	0x3d0bd29c	0.0341364
123	0xbd921f63	-0.07134893
124	0xbcf78803	-0.030216223
125	0xbc51ba2a	-0.012800733
126	0xbcc90c29	-0.024541931
127	0xb9c919c1	-0.00038356896
128	0x3b88be5b	0.0041730828
129	0x3ccb0c06	0.024786007
130	0xbcae41ed	-0.02127167
131	0x3dd88d18	0.105737865
132	0x3d29627b	0.041353684
133	0xbe807091	-0.2508588
134	0xbd09191c	-0.03347121
135	0xbd93ba62	-0.07213284
136	0x3d68d22d	0.056841064
137	0x3e158c97	0.14604412
138	0x3bf1dcca	0.0073810564
139	0xbd504810	-0.050849974
140	0x3e407143	0.18793206
141	0x3e896983	0.26838312
142	0xbd318a65	-0.043344874
143	0x3d3838f6	0.044976197
144	0x3c191d30	0.009345338
145	0x3cadb9c5	0.021206746
146	0xbdbb8880	-0.09156895
147	0xbcd234e8	-0.025659993
148	0xbe3c1e27	-0.18370877
149	0x3da2ea06	0.07954793
150	0xbbf865a7	-0.0075804773
151	0x3c9d3136	0.019188505
152	0xbdcd59dd	-0.10026906
153	0x392762de	0.00015963192
154	0x3d50b4ca	0.050953664
155	0x3db5f584	0.08884719
156	0xbb9a94aa	-0.004717429
157	0x3cdb27e6	0.026752423
158	0x3dd3f887	0.10350137
159	0xbca457d2	-0.020061407
160	0x3d14c157	0.036317196
161	0x3cefba1e	0.029263552
162	0xbccb7780	-0.024837255
163	0xbd8dfa27	-0.069324784
164	0xbd31a99e	-0.04337465
165	0x3abc2f4d	0.0014357358
166	0xbcfc00b0	-0.030762047
167	0xbda7d2f6	-0.081945345
168	0xbbb39ab9	-0.005481091
169	0xbdcc668d	-0.099804975
170	0x3c456ca4	0.012049828
171	0xbc87a157	-0.016556425
172	0xbcf91e19	-0.03040986
173	0xbdb79c44	-0.08965352
174	0x3d3c203c	0.04592918
175	0x3d889649	0.066692896
176	0xbd490d22	-0.04908479
177	0x3ca6b2d8	0.020348951
178	0xbdeea1d2	-0.116519585
179	0xbd43d42b	-0.04780976
180	0xbd89b08a	-0.06723125
181	0x3c42fd33	0.011901188
182	0xbd92b3bd	-0.071631886
183	0x3dd99b6c	0.106253475
184	0x3ca9b7aa	0.02071746
185	0x3cce74b3	0.02520213
186	0xbd490da8	-0.04908529
187	0xbdd69600	-0.10477829
188	0xbd83d8a5	-0.06437806
189	0xbd3d9952	-0.046288796
190	0xbc297fb9	-0.010345393
191	0x3d3fab4b	0.046794217
192	0xbc14063a	-0.009034688
193	0xbdb2cc3f	-0.08730363
194	0x3d166553	0.036717724
195	0x3da8be07	0.0823937
196	0xbd93a000	-0.07208252
197	0xbb10bd84	-0.0022085616
198	0x3d84b767	0.06480294
199	0x3d577a05	0.0526066
200	0x3cc6de4b	0.02427592
201	0xbcc11527	-0.023569657
202	0x3d16603c	0.03671287
203	0x3d25062d	0.040289093
204	0xbd58bd64	-0.052914992
205	0xbd858a80	-0.065205574
206	0xbc9be3ff	-0.019029615
207	0x3c18f944	0.009336773
208	0x3d781c20	0.060573697
209	0xbe0578a7	-0.13034306
210	0xbc0de5c4	-0.008660737
211	0x3e043fb1	0.12914921
212	0x3d279117	0.040909853
213	0x3cbf2481	0.023332836
214	0x3d8c0521	0.06836916
215	0xbc98a5eb	-0.018633803
216	0xbd49320c	-0.049119994
217	0xbdbe4edc	-0.09292385
218	0x3d66533c	0.056231722
219	0x3cfce7b4	0.030872203
220	0xbab9721f	-0.0014148391
221	0x3d03cbcc	0.032176778
222	0xbd2ad3ba	-0.041705824
223	0x3de8756e	0.11350523
224	0xbcc368ea	-0.023853738
225	0x3d07d51d	0.033162225
226	0x3d2eb219	0.042650316
227	0x3c3ff9bc	0.011717256
228	0xbc4898c1	-0.012243451
229	0x3d8ee812	0.06977858
230	0x3d089117	0.033341493
231	0x3c948291	0.018128665
232	0xbd6f5cb2	-0.05843801
233	0x3ca983b8	0.020692691
234	0x3c320cc4	0.010867301
235	0x3d45becb	0.048277657
236	0x3d457e0e	0.04821592
237	0x3d21d052	0.03950531
238	0xbcb7fd2a	-0.022459585
239	0xbb58195c	-0.00329741
240	0x3c4ee0fb	0.012626882
241	0xbc975c1d	-0.01847654
242	0x3bbf920f	0.005846269
243	0x38943330	7.066724e-05
244	0xbbcf43da	-0.006325227
245	0x3bbe604b	0.005809819
246	0x3da5cd92	0.0809585
247	0xbd954637	-0.07288783
248	0xbcb5217d	-0.022110695
249	0xbd95e407	-0.073188834
250	0x3b70f63e	0.0036767866
251	0x3d38a7fe	0.045082085
252	0x3df87edf	0.12133574
253	0xbc5caf79	-0.01346957
254	0xbcf82357	-0.030290289
255	0x3c1abc3a	0.009444291

layers.0.gat.lin_edge.weight f4 [64, 1]
0	0xbefe1d38	-0.49631667
1	0xbe0e8e71	-0.13921525
2	0xbd5b5f1b	-0.053557497
3	0x3e8047ba	0.25054723
4	0xbe7dc766	-0.24783096
5	0x3eba20ad	0.36353055
6	0x3eda0f48	0.42589784
7	0xbd921a12	-0.07133879
8	0x3ebc3557	0.36759445
9	0x3d4a2d10	0.04935938
10	0x3e062ca1	0.13102962
11	0xbe4943c0	-0.19654751
12	0xbead7849	-0.33880833
13	0x3ec1eb19	0.37874678
14	0xbeb11a2a	-0.34590274
15	0xbdbe5cef	-0.092950694
16	0xbf50304b	-0.8132369
17	0xbeb1cf47	-0.34728453
18	0x3e2fbbf5	0.17161544
19	0x3f444c65	0.7667907
20	0xbd47869d	-0.04871236
21	0x3ef1654e	0.47147602
22	0xbf3507e3	-0.7071516
23	0xbea82a0b	-0.32844576
24	0xbea9aea5	-0.33141056
25	0x3f2b2efc	0.6686857
26	0xbec05729	-0.37566498
27	0xbf545719	-0.829454
28	0xbf45f2b6	-0.7732347
29	0xbe36acfd	-0.17839427
30	0xbefec20c	-0.4975742
31	0xbf48be46	-0.78415334
32	0xbc149c0a	-0.009070406
33	0xbd53dfb8	-0.051727027
34	0x3962030e	0.00021554178
35	0xbe56a105	-0.20959862
36	0x3e235150	0.15948987
37	0x3e80e7ea	0.25176936
38	0x3be9f719	0.007140052
39	0x3edd26d8	0.43193698
40	0xbe16ab06	-0.14713678
41	0xbed21741	-0.41033366
42	0x3ee66ddf	0.450057
43	0xb91fa051	-0.00015223144
44	0x3e8dc77e	0.27691263
45	0xbebe3a0b	-0.37153658
46	0x3e36173f	0.17782305
47	0xbe471346	-0.19440946
48	0x33c43144	9.1359226e-08
49	0x000aaace	9.79628e-40
50	0x000f7a7a	1.421469e-39
51	0x0a09152d	6.600293e-33
52	0x800e887d	-1.33466e-39
53	0x0ce9163c	3.5912716e-31
54	0xaf62b05b	-2.0617234e-10
55	0x8019ed5d	-2.381037e-39
56	0x001b5f50	2.51375e-39
57	0x800b0d58	-1.014977e-39
58	0x002626c5	3.503657e-39
59	0x19b07259	1.8244158e-23
60	0x00207f04	2.9843e-39
61	0x000325e2	2.89096e-40
62	0x00431d88	6.163572e-39
63	0x00e72dc4	2.1230417e-38

layers.0.norm.weight f4 [64]
0	0x3ee7f7bf	0.45306203
1	0x3eccc332	0.39992672
2	0x3f38c157	0.72170013
3	0x3ef297c1	0.47381404
4	0x38d46ce2	0.00010129229
5	0x3ed90ce8	0.4239266
6	0x3ed6db8d	0.4196438
7	0x3eee0908	0.46491265
8	0x3f0cc68b	0.5499045
9	0x3f11127b	0.56668824
10	0x3f334545	0.7002757
11	0x3f28e8e0	0.6598034
12	0x3f0ff8d9	0.56239086
13	0x3f10a6d6	0.5650457
14	0x3ecd07e4	0.40045083
15	0x3eb5ce6e	0.35509056
16	0x3ef8cbd1	0.48593
17	0x3eeb5eeb	0.45970854
18	0x3f07c660	0.5303707
19	0x3ef52918	0.47882915
20	0x3f05c8bf	0.5225944
21	0x3ed8070e	0.42192882
22	0x3f167490	0.5877161
23	0x3e4e66bf	0.20156382
24	0x3f0e7cf6	0.55659425
25	0x3f19bfee	0.60058486
26	0x3f6bb655	0.9207509
27	0x3f59eca5	0.85126716
28	0x3f2ebca9	0.6825662
29	0x3f0269fb	0.50942963
30	0x3f33428b	0.7002341
31	0x3eb13efc	0.34618366
32	0x3f13abaf	0.57683843
33	0x3f4713e8	0.7776475
34	0x3f0af79b	0.54284066
35	0x3f2ef34c	0.6833999
36	0x3ef380cb	0.475592
37	0x3cc56077	0.02409385
38	0x3f062720	0.5240345
39	0x3eec4b05	0.46150985
40	0x3eeaac04	0.45834363
41	0x3eaf93f5	0.3429257
42	0x3f248bf5	0.6427606
43	0x3f429626	0.7601036
44	0x3f3b02a5	0.7305091
45	0x3eb7facc	0.3593353
46	0x3e8ea12f	0.27857348
47	0x3e916934	0.28400576
48	0x3eb3f450	0.35147333
49	0x3f226cc5	0.6344722
50	0x3eeab5ae	0.45841736
51	0x3e4fcee8	0.20293772
52	0x3e90f9e8	0.28315663
53	0x3f002421	0.5005513
54	0x3f0f0f0e	0.55882347
55	0x3ea86b66	0.32894439
56	0x3f0b16fd	0.5433195
57	0x3ec59e32	0.38597256
58	0x3ee6723b	0.45009026
59	0x3e876722	0.26445872
60	0x3efb1c6c	0.49045122
61	0x3f4b592f	0.7943296
62	0x3f1e9f98	0.6196227
63	0x3efde7e4	0.4959098

layers.0.norm.bias f4 [64]
0	0xbdb6b5c6	-0.08921389
1	0xbd92edc5	-0.07174257
2	0xbd931ddf	-0.07183432
3	0xbdeff833	-0.11717262
4	0xbd8b3a56	-0.06798236
5	0xbdbb17b4	-0.091353804
6	0xbd7fc934	-0.06244774
7	0xbddeece7	-0.10885029
8	0xbdfe539a	-0.124182895
9	0xbe3f25ac	-0.18666714
10	0xbdf53bc6	-0.119742915
11	0xbd94a3ec	-0.07257828
12	0xbe0fb67e	-0.14034459
13	0xbd7f1e83	-0.062284958
14	0xbd8be516	-0.06830804
15	0xbdc700f6	-0.0971698
16	0xbe04a1e7	-0.12952386
17	0xbdfa935e	-0.12235139
18	0xbdf8fa17	-0.12157076
19	0xbe31bb41	-0.17356588
20	0xbdf9b818	-0.12193316
21	0xbe1893d0	-0.14900136
22	0xbdeb121b	-0.11478063
23	0xbded3115	-0.11581627
24	0xbdb041fd	-0.08606336
25	0xbe1b0a36	-0.15140614
26	0xbe29c318	-0.16578329
27	0xbd40c3a3	-0.047061574
28	0xbe4b8c06	-0.19877633
29	0xbd2c4750	-0.042060196
30	0xbd58565f	-0.052816745
31	0xbde869a8	-0.11348277
32	0xbd7f6c6e	-0.062359266
33	0xbe17486a	-0.14773718
34	0xbdac49bb	-0.084125005
35	0xbe48c7af	-0.19607423
36	0xbd34b692	-0.044119425
37	0x3b984350	0.004646696
38	0xbd5dc8ba	-0.054146506
39	0xbe1dc7ac	-0.154082
40	0xbe264e44	-0.16240793
41	0xbdb7b00c	-0.08969125
42	0xbd5dc923	-0.054146897
43	0xbc9b02db	-0.01892226
44	0xbd0709b7	-0.03296825
45	0xbe0fe673	-0.14052753
46	0xbd9abe65	-0.07555846
47	0xbe012b77	-0.12614237
48	0xbe068426	-0.13136348
49	0xbe2bd3d7	-0.16780029
50	0xbe30e716	-0.17275652
51	0xbe0f9bea	-0.1402432
52	0xbe31b461	-0.17353965
53	0xbe6a6c26	-0.22892818
54	0xbdb63cdb	-0.08898326
55	0xbdd91d47	-0.10601287
56	0xbe11bf11	-0.14233042
57	0xbde9a0b4	-0.11407605
58	0xbdb1dcfa	-0.08684726
59	0xbd954e65	-0.07290343
60	0xbe0b1d99	-0.1358551
61	0xbd6729f5	-0.056436498
62	0xbdb498b9	-0.08818192
63	0xbcfe4a2d	-0.03104123

layers.1.gat.att_src f4 [1, 4, 16]
0	0x3e84c600	0.25932312
1	0x3e2c5d0b	0.16832368
2	0x3ed696fd	0.4191207
3	0xbddfa1e3	-0.10919549
4	0x3dad60d1	0.08465732
5	0x3dde3418	0.1084978
6	0x3ee44c3f	0.4458942
7	0x3e86e5e6	0.26347274
8	0xbef868ea	-0.48517543
9	0x3f0d22f5	0.55131465
10	0xbef64fb2	-0.48107678
11	0x3e688967	0.22708665
12	0xbe005f9f	-0.12536477
13	0xbec865d6	-0.39140195
14	0x3e452332	0.19251707
15	0x3e7cfb22	0.24705175
16	0x3c88bcca	0.016691584
17	0x3d335a5b	0.04378734
18	0x3d302cd0	0.043011487
19	0xbd0090c9	-0.031388078
20	0xbd75e9bc	-0.06003736
21	0xbcbab5d8	-0.022791788
22	0xbd9b71cf	-0.07590067
23	0x3e005a2b	0.12534396
24	0xbd53d5c7	-0.051717546
25	0xbd0f56e7	-0.034994986
26	0xbd9e524f	-0.07730543
27	0xbdb538be	-0.08848713
28	0x3dee6d95	0.11641995
29	0x3c045e36	0.008079102
30	0xbbf33af5	-0.0074227997
31	0x3da8974c	0.082319826
32	0xbda78cc5	-0.081811465
33	0xbef0021b	-0.46876606
34	0x3e68c87a	0.22732726
35	0x3d4b7478	0.04967162
36	0x3dd45943	0.10368588
37	0x3e4fad4c	0.20280951
38	0xbddb0b48	-0.10695511
39	0xbc8d2579	-0.017229782
40	0x3e6b8429	0.22999634
41	0x3d422b4c	0.047404572
42	0xbe669b6a	-0.22520223
43	0xbc12c17f	-0.008957266
44	0xbe080553	-0.13283281
45	0xbda7c801	-0.081924446
46	0xbf1cf041	-0.613041
47	0x3dad221f	0.08453774
48	0xbd899d42	-0.06719448
49	0xbe046c1b	-0.12931864
50	0x3e0b4dd5	0.1360391
51	0x3e114b72	0.14188936
52	0x3dc36094	0.09539905
53	0xbd07f797	-0.033195104
54	0xbd32491c	-0.043526754
55	0xbe254116	-0.1613811
56	0x3d3d2cfb	0.046185475
57	0xbd748bf3	-0.05970378
58	0xbdaa05e0	-0.08301902
59	0x3d0c180b	0.034202617
60	0xbd95f895	-0.07322804
61	0x3db2eeb7	0.087369375
62	0x3d374974	0.044747785
63	0xbdfbfff4	-0.123046786

layers.1.gat.att_dst f4 [1, 4, 16]
0	0xbd00d55f	-0.031453487
1	0x3e0e5d2c	0.1390273
2	0xbe815f56	-0.25268048
3	0x3dbfab8f	0.09358894
4	0xbde7a947	-0.11311584
5	0xbc6746eb	-0.014116029
6	0xbeb6fcdc	-0.3573979
7	0xbe4c48a3	-0.19949584
8	0x3ea7e43c	0.32791317
9	0xbed50dd7	-0.4161212
10	0x3ee48555	0.44632974
11	0xbd3ea7fd	-0.046546925
12	0x3e834d09	0.2564471
13	0x3ea0c3d3	0.31399402
14	0xbe9b552d	-0.3033842
15	0xbef581eb	-0.47950682
16	0xbca14c69	-0.019689756
17	0xbc97c86e	-0.01852819
18	0x3d125b38	0.035731524
19	0x3d22a668	0.03970948
20	0x3d47ac0a	0.048748054
21	0x3b119bc4	0.0022218088
22	0x3da8de01	0.08245469
23	0xbd889e73	-0.06670847
24	0x3aa894ac	0.001286169
25	0x3cee83fd	0.029115671
26	0x3d787606	0.06065943
27	0x3da41597	0.080119304
28	0xbe02c8d2	-0.1277192
29	0xbccf3303	-0.025292879
30	0x3c8eb19b	0.017418673
31	0x3b90bf74	0.0044173542
32	0x3d4891e8	0.048967272
33	0x3dc45dfa	0.09588237
34	0xbcb029ea	-0.021504361
35	0x3dc4383a	0.09581037
36	0x3ced1e7c	0.0289452
37	0xbea7469f	-0.32671067
38	0x3dc3ba55	0.095570244
39	0xbd7fd8a0	-0.06246245
40	0xbe6e6364	-0.23280102
41	0x3c841224	0.016121931
42	0x3ce2dbd5	0.027692715
43	0xbd5742c6	-0.052553914
44	0xbd15aa90	-0.036539614
45	0x3d6e139d	0.058124173
46	0x3d28bad0	0.041193783
47	0xbdd04498	-0.10169333
48	0xbcb18fce	-0.021675017
49	0xbd0af2ec	-0.033923075
50	0x3c523e22	0.012832196
51	0xbd485919	-0.048913095
52	0x3d291754	0.041282013
53	0x3b96b433	0.004599118
54	0xbca38ec5	-0.019965539
55	0x3cb9602e	0.02262887
56	0xbc0a2203	-0.008430961
57	0x3d21c35d	0.039492954
58	0x3bc913fd	0.006136416
59	0xbd567c34	-0.052364543
60	0x3d1b0494	0.037846163
61	0xbd540392	-0.051761217
62	0xbcd7aa10	-0.02632621
63	0xbcd87561	-0.026423158

layers.1.gat.att_edge f4 [1, 4, 16]
0	0x0003b5b0	3.40684e-40
1	0x0004fa80	4.57204e-40
2	0x0002d113	2.58673e-40
3	0x0004a96e	4.28122e-40
4	0x1d0d331d	1.868762e-21
5	0x001a8ee9	2.43899e-39
6	0x0006a6a2	6.1079e-40
7	0x800834fd	-7.53693e-40
8	0x196e3d22	1.2316657e-23
9	0x3248f4b2	1.16971695e-08
10	0x80246bbc	-3.344726e-39
11	0x0011fc4d	1.651712e-39
12	0x80252548	-3.411287e-39
13	0x00012a08	1.06913e-40
14	0x800a4715	-9.43854e-40
15	0x804e03d3	-7.16454e-39
16	0x8001923c	-1.44295e-40
17	0x800bfe03	-1.101313e-39
18	0x81f1a660	-8.8768155e-38
19	0x000c3175	1.119768e-39
20	0x0018205d	2.215662e-39
21	0x96106c64	-1.166643e-25
22	0x8001af37	-1.54691e-40
23	0x0009efc4	9.12531e-40
24	0x0002bb0a	2.50768e-40
25	0x00029c71	2.39792e-40
26	0x9cbdad25	-1.2551728e-21
27	0x000633fb	5.6966e-40
28	0x00099bc8	8.82403e-40
29	0x826eaa1e	-1.75343e-37
30	0x80137ad9	-1.788944e-39
31	0x80064bf2	-5.78257e-40
32	0x8fa27daf	-1.6022845e-29
33	0xbe02ebfb	-0.12785332
34	0x0f419f61	9.54633e-30
35	0x0f4d7152	1.0129105e-29
36	0xaa38a3e6	-1.6399347e-13
37	0x9002ae59	-2.5772292e-29
38	0x3e06b37f	0.1315441
39	0x3e15625e	0.14588305
40	0x29b4ed9c	8.0348244e-14
41	0xbe0584db	-0.13038962
42	0x0d3ae3ec	5.7590026e-31
43	0x152639c9	3.3569017e-26
44	0xb0e36f82	-1.6548116e-09
45	0x06d31380	7.939803e-35
46	0xbe0c2b60	-0.13688421
47	0x3c4baaf8	0.012430899
48	0x800418ba	-3.76212e-40
49	0x00177453	2.153946e-39
50	0x31da40a4	6.351984e-09
51	0x0003298e	2.90414e-40
52	0x8028341c	-3.692113e-39
53	0x0007b0ff	7.06343e-40
54	0x001c7fd7	2.617254e-39
55	0x0002998b	2.38752e-40
56	0x800c7fbc	-1.147848e-39
57	0x802eda11	-4.30266e-39
58	0x80205cc9	-2.972021e-39
59	0x802631c1	-3.507597e-39
60	0x802b7d9f	-3.99399e-39
61	0x00148db7	1.887548e-39
62	0x8011481d	-1.587073e-39
63	0x002156b0	3.061669e-39

layers.1.gat.bias f4 [64]
0	0xbc82924f	-0.015938906
1	0x3d1c1322	0.038104184
2	0x3dd3ec18	0.10347766
3	0x3d51806a	0.051147856
4	0x3ce739d5	0.028225819
5	0xbd14e27c	-0.036348805
6	0x3cbb3910	0.022854358
7	0x3c274ae4	0.010210726
8	0xbc6ce1b9	-0.014458113
9	0x3d0779e5	0.033075232
10	0xbc0feac2	-0.008783998
11	0x3db1e3cf	0.08686029
12	0xbcccba19	-0.024991082
13	0x3c2b7417	0.01046469
14	0x3d7b3a7a	0.061335064
15	0x3d3436e1	0.04399765
16	0xbcfc18f3	-0.030773615
17	0xbc9f3bf8	-0.019437775
18	0xbd11c072	-0.03558392
19	0x3b0aa739	0.0021156801
20	0xbc4c859d	-0.012483028
21	0x3d19566d	0.037435938
22	0x3a12172e	0.0005572912
23	0xbc24d3fc	-0.010060307
24	0xbd84bafb	-0.06480976
25	0xbb8772a9	-0.0041335416
26	0xbd1c0f5a	-0.038100578
27	0x3d06aa68	0.032877356
28	0x3ca82fc3	0.020530587
29	0x3d202098	0.039093584
30	0x3d8fb190	0.07016289
31	0x3d597613	0.05309112
32	0x3d31195a	0.043237068
33	0xbd34dca1	-0.04415572
34	0x3ced27fd	0.028949732
35	0x3cbd49f2	0.023106549
36	0x3c364fb7	0.011127404
37	0x3d7ab6bd	0.06120943
38	0x3cbce6ae	0.023059215
39	0x3cb284eb	0.021791896
40	0xbd1d805f	-0.038452502
41	0x3ba5449c	0.0050435793
42	0x3cee58ed	0.029095137
43	0x3d83665e	0.06416009
44	0x3c27578c	0.010213744
45	0xb9b26483	-0.00034025693
46	0xbceccde3	-0.028906768
47	0xbd898885	-0.06715492
48	0x3b7be44d	0.0038435638
49	0xbd6f814a	-0.05847291
50	0x3c7553fb	0.014973636
51	0xbc882706	-0.01662017
52	0xbcd6e398	-0.026231572
53	0x3d18a6f5	0.037268598
54	0x3c32750e	0.010892166
55	0xbcfc6d47	-0.030813826
56	0xbc84c31c	-0.016206317
57	0xbc434ea9	-0.0119206095
58	0x3ca5207d	0.020157093
59	0xbcd02c2d	-0.02541169
60	0x3cd3b710	0.025844127
61	0x3dabb0e6	0.0838335
62	0x3d0da59f	0.034581777
63	0x3c60a15d	0.013710347

layers.1.gat.lin.weight f4 [64, 64]
0	0x3d3887ac	0.04505126
1	0xbda8c746	-0.082411334
2	0xbb06fde8	-0.0020598117
3	0xbda69f7b	-0.08135887
4	0xbb56e74d	-0.0032791675
5	0x3de7ff7f	0.11328029
6	0x3d6a3a2e	0.05718439
7	0x3bdef7fd	0.006804465
8	0xbd544920	-0.05182755
9	0xbcf0a8e2	-0.029377405
10	0x3d058a71	0.03260273
11	0x3b369262	0.0027858247
12	0xbd3f49a4	-0.04670109
13	0xbcd15cde	-0.025556978
14	0xbc6c24c8	-0.014413066
15	0xbcf69eb6	-0.030104976
16	0x3ad89620	0.0016524233
17	0xbe18f801	-0.14938356
18	0xbe240ca8	-0.16020453
19	0xbc25b38a	-0.010113606
20	0x3c9e29ee	0.019307103
21	0x3d41f166	0.047349356
22	0xbd360487	-0.04443791
23	0x3b5f83ac	0.0034105582
24	0x3dd1aa33	0.10237541
25	0xbd1053e0	-0.03523624
26	0x3c0025e9	0.0078215385
27	0x3e021f33	0.12707214
28	0xbb434b8d	-0.002979967
29	0xbe446c27	-0.19181882
30	0x3d9d6d86	0.076869056
31	0x3d757860	0.05992925
32	0x3d5358d7	0.051598396
33	0x3a037b7b	0.00050156534
34	0x3da1b07a	0.07894988
35	0x3d43577c	0.047690853
36	0xbdfdd093	-0.12393298
37	0x3d3349f6	0.043771707
38	0xbd2e5df2	-0.042570062
39	0xbd2ddc10	-0.042446196
40	0x3cfea834	0.031086065
41	0x3d068cd0	0.032849133
42	0x3d4b84e1	0.04968727
43	0x3c3e4ffe	0.011615751
44	0x3dc93d36	0.09826128
45	0xbc87c532	-0.016573522
46	0xbbd8d50b	-0.0066171936
47	0xbe37aca9	-0.17936958
48	0x3c8b7934	0.017025568
49	0xbb9c2495	-0.004765103
50	0xbcbf8e68	-0.023383334
51	0xbd1cc1f2	-0.0382709
52	0x3c411091	0.011783735
53	0x3b9276ca	0.004469727
54	0x3dc715e7	0.097209744
55	0x3c925064	0.017860599
56	0xbd2d4ca3	-0.042309415
57	0xbdb7cd70	-0.08974731
58	0x3d6cb55e	0.057790153
59	0xbd074a26	-0.033029698
60	0xbb7b71c4	-0.003836737
61	0x3d942cbd	0.07235096
62	0xb9603218	-0.00021380966
63	0x3a81282d	0.0009853892
64	0xbc5fbf7c	-0.013656493
65	0x3d3a7d4d	0.045529652
66	0x3d10becf	0.03533822
67	0xbb763a6c	-0.0037571443
68	0xbcaf9128	-0.02143152
69	0x3d3b4fb1	0.045730297
70	0x3d231a36	0.03981992
71	0x3d3903c2	0.0451696
72	0xbdc3ea4c	-0.09566173
73	0xbcc1fdbe	-0.023680564
74	0xbd42a9a9	-0.04752508
75	0x3def1b05	0.116750754
76	0xbca56585	-0.02019001
77	0x3c829694	0.015940942
78	0x3d4eff8e	0.050536685
79	0xbc968caf	-0.01837763
80	0xbdcec023	-0.10095241
81	0x3bb329bf	0.005467623
82	0x3cff45cb	0.03116121
83	0xbd2a4ad5	-0.04157527
84	0xbce83352	-0.028344784
85	0x3dbcb4cd	0.092141725
86	0xbb422517	-0.0029624158
87	0xbd22192b	-0.039574783
88	0x3de6d64c	0.11271343
89	0xbddcd5cf	-0.10782968
90	0xbe2d6589	-0.16933264
91	0xbd18e5d8	-0.03732857
92	0xbdb7ceb1	-0.0897497
93	0xbd1afebe	-0.037840597
94	0xb9fe9675	-0.00048558754
95	0x3d099b23	0.033595216
96	0x3ce63e28	0.02810581
97	0xbc5c5abd	-0.013449368
98	0x3d01e2b5	0.031710345
99	0xbd2c3d75	-0.042050797
100	0xbb9f89ef	-0.004868738
101	0xbd9392a0	-0.07205701
102	0xbde3d0dc	-0.11123821
103	0x3c2036fd	0.009778735
104	0xbd4a0eae	-0.049330406
105	0x3ca528e7	0.020161105
106	0x3cf07be7	0.029355956
107	0xb9004a7c	-0.00012234779
108	0x3dc44753	0.095839165
109	0x3dae7fc4	0.08520463
110	0x3db2989e	0.08720516
111	0x3cbb8fbb	0.022895684
112	0xbd59176c	-0.053000852
113	0x3d96e143	0.07367184
114	0xbcad8060	-0.021179378
115	0x3cdfda6e	0.027325835
116	0xbd613bc9	-0.054988656
117	0xbd7a05bf	-0.061040636
118	0x3c558835	0.013032963
119	0x3dd1db62	0.10246922
120	0xba7cab34	-0.00096385484
121	0x3daded60	0.08492541
122	0x3d9d8adb	0.076925
123	0xbd597405	-0.05308916
124	0x3d88ee3e	0.06686066
125	0x3c4cb250	0.012493685
126	0x3cc3d640	0.023905873
127	0xbd644362	-0.055728324
128	0xbd8971b5	-0.06711141
129	0xbe0248e2	-0.12723115
130	0xbe014a7e	-0.12626073
131	0xbd9595d1	-0.07303966
132	0x3ca6d5aa	0.020365555
133	0xbd177a7b	-0.03698204
134	0x3c382b0f	0.011240735
135	0x3d18edf2	0.037336297
136	0xbdad646b	-0.08466419
137	0xba963897	-0.0011460957
138	0x3d1017db	0.035179
139	0xbd5c1b8e	-0.053737216
140	0xbde132b2	-0.109959975
141	0xbe375c7f	-0.17906378
142	0x3ceb5e6a	0.028731544
143	0xbd50c612	-0.050970145
144	0xbdedd02c	-0.11611971
145	0xbc219850	-0.009862974
146	0xbe4d6e64	-0.20061642
147	0xbc4f29dd	-0.012644258
148	0xbdbab5eb	-0.09116729
149	0xba392a34	-0.00070634787
150	0xbd3bc81d	-0.04584514
151	0xbd91faf6	-0.07127945
152	0x3df7139c	0.12064287
153	0x3ad3f0c5	0.0016169777
154	0x3c10ebce	0.008845283
155	0x3d0c9789	0.034324203
156	0xbd562596	-0.05228194
157	0xbdbacbb6	-0.09120886
158	0xbd17191e	-0.036889188
159	0xbda2e967	-0.07954674
160	0x3d62934b	0.05531625
161	0x38078b24	3.2316093e-05
162	0xbd4bf12d	-0.04979055
163	0xbc86e1fa	-0.016465176
164	0xbe7d0c45	-0.24711712
165	0xbdc75954	-0.09733835
166	0xbda953c7	-0.082679324
167	0xbe71ad7a	-0.23601332
168	0xbe1aa849	-0.15103258
169	0x3caf75f0	0.021418542
170	0xbc6b3f5e	-0.01435837
171	0x3cf8a119	0.030350255
172	0x3cb7b9af	0.022427408
173	0x3cd60578	0.026125655
174	0xbc4e126a	-0.012577632
175	0xbd986630	-0.07441366
176	0xbc9dbaae	-0.019254055
177	0x3cc5edf1	0.02416131
178	0x3d078fa6	0.03309598
179	0x3a97fe81	0.0011596234
180	0xbdc3e3ab	-0.095649086
181	0x3cbe95af	0.023264734
182	0xbcfce4c9	-0.030870812
183	0xbbef7887	-0.007308069
184	0xbc7a4215	-0.015274544
185	0xbd0232c0	-0.03178668
186	0xbd17ca49	-0.03705815
187	0x3d207a6e	0.039179258
188	0x3ced4ea2	0.02896816
189	0x3dc53c54	0.09630647
190	0xbc6ee5fb	-0.014581199
191	0xbbfc1530	-0.0076929554
192	0xbca15a73	-0.01969645
193	0x3bfc90a2	0.0077076713
194	0x3c8ecc37	0.017431362
195	0x3c3b40d6	0.011429032
196	0xbcf370d0	-0.02971688
197	0x3b58bc5f	0.0033071262
198	0x3c78d9ed	0.015188676
199	0x3c0476bc	0.008084949
200	0x3b852f78	0.0040644966
201	0xbd25a6be	-0.04044222
202	0xbd6510e1	-0.0559243
203	0x3c8c5d80	0.017134428
204	0x3ceb368b	0.028712532
205	0x3cb13586	0.021631967
206	0xbb391703	-0.0028242476
207	0x3b513de0	0.003192775
208	0x3d02063c	0.031744227
209	0xbc52fa4f	-0.012877061
210	0x3cb47ef5	0.022033194
211	0xbb2342c5	-0.0024911624
212	0xbba8d73c	-0.005152611
213	0x3c9cd4fc	0.019144528
214	0xbb980272	-0.0046389634
215	0x3aa1235b	0.0012293862
216	0xbc555893	-0.013021606
217	0xbc9d2b0b	-0.019185564
218	0x3d0b1b98	0.033961862
219	0xbc9ba24e	-0.018998291
220	0x3c945f97	0.018111987
221	0xba5a1e0a	-0.0008320516
222	0x3b90032e	0.0043949103
223	0x3b6b7041	0.0035925063
224	0xbc53d008	-0.0129280165
225	0xbd7856f1	-0.06062979
226	0x3c4eb816	0.012617132
227	0xbcc675e3	-0.024226135
228	0x3b96334e	0.0045837527
229	0x3d549bcd	0.051906396
230	0x3b9062b0	0.0044062957
231	0x3da76e4d	0.08175335
232	0x3ba4004d	0.0050049187
233	0x3cde9d4b	0.027174613
234	0xbc522f7b	-0.012828703
235	0x3c630ca8	0.013857998
236	0x3cfba08f	0.030716209
237	0x3c805015	0.015663186
238	0xb98d9698	-0.00027005817
239	0x3c6788b7	0.014131716
240	0x3c14ced9	0.009082519
241	0xbc2308e5	-0.009950851
242	0x3c15dbf5	0.00914668
243	0xbc3fc6f8	-0.011705153
244	0x3c9317db	0.017955711
245	0x3c51dd43	0.012809101
246	0x3b3a0a71	0.0028387571
247	0xbc822411	-0.015886338
248	0x3b90f48d	0.004423684
249	0xbc9fa190	-0.019486219
250	0xba83994d	-0.0010040194
251	0x3bbde9f1	0.0057957103
252	0x3cbe2a01	0.023213388
253	0xbc22d785	-0.009939079
254	0xbc8bd354	-0.017068543
255	0x3bb372ce	0.0054763323

layers.1.gat.lin_edge.weight f4 [64, 1]
0	0x80152b71	-1.944129e-39
1	0x000cf33f	1.189286e-39
2	0x000fe04c	1.457995e-39
3	0x00122321	1.665641e-39
4	0x1d0b6646	1.844937e-21
5	0x8016dd67	-2.099805e-39
6	0x80036f91	-3.15529e-40
7	0x0002e824	2.66947e-40
8	0x196e6542	1.23247605e-23
9	0x324e7c47	1.20190355e-08
10	0x0007f11e	7.29345e-40
11	0x00181c94	2.214304e-39
12	0x8002c826	-2.55471e-40
13	0x80194fa9	-2.324464e-39
14	0x800095b7	-5.3708e-41
15	0x8051620a	-7.473845e-39
16	0x00021369	1.90634e-40
17	0x001ac199	2.457173e-39
18	0x82593a8a	-1.5959442e-37
19	0x80089471	-7.87935e-40
20	0x000acd87	9.92084e-40
21	0x9612fbad	-1.1873201e-25
22	0x001f1cc2	2.857217e-39
23	0x8015cac0	-2.001278e-39
24	0x8000851a	-4.7748e-41
25	0x800b9f50	-1.067341e-39
26	0x9ce5de40	-1.5211399e-21
27	0x80018e39	-1.42855e-40
28	0x80095435	-8.56727e-40
29	0x83179582	-4.454654e-37
30	0x80230619	-3.21643e-39
31	0x00035798	3.06929e-40
32	0x8fa7abc4	-1.6533633e-29
33	0xbe02ebf9	-0.12785329
34	0x0f8c4ce2	1.383468e-29
35	0x0f243866	8.096686e-30
36	0xaa38a138	-1.6398417e-13
37	0x9038c685	-3.6440536e-29
38	0x3e06b372	0.1315439
39	0x3e15625e	0.14588305
40	0xa906e95c	-2.9956384e-14
41	0xbe0584b1	-0.13038899
42	0x0f102b83	7.108128e-30
43	0x953d3d4d	-3.8216604e-26
44	0x31027b39	1.8987534e-09
45	0x07cb4900	3.058695e-34
46	0xbe0c2b39	-0.13688363
47	0x3c4bab17	0.012430928
48	0x00239a5e	3.269619e-39
49	0x002bdf34	4.028997e-39
50	0x31fc9149	7.3506823e-09
51	0x00182d45	2.220292e-39
52	0x80272fa3	-3.598673e-39
53	0x80358685	-4.915538e-39
54	0x8007323f	-6.60873e-40
55	0x80047a5f	-4.1124e-40
56	0x809fdfa6	-1.4682074e-38
57	0x80219883	-3.085282e-39
58	0x802ff87a	-4.405405e-39
59	0x8026aaa4	-3.550963e-39
60	0x800c5b12	-1.134696e-39
61	0x0009cc38	8.9978e-40
62	0x800432dc	-3.85587e-40
63	0x00078950	6.92107e-40

layers.1.norm.weight f4 [64]
0	0x3ebb2293	0.36549816
1	0x3e92b868	0.28656316
2	0x3f07e158	0.5307822
3	0x3d77cd58	0.060498565
4	0x3f28a8ff	0.6588287
5	0x3ec4f4da	0.38468057
6	0x3ea1cc8e	0.31601375
7	0x3ec7310d	0.3890461
8	0x3f0800d9	0.53126293
9	0x3e0265c6	0.12734136
10	0x3e9d280c	0.30694616
11	0x3f2c5616	0.67318857
12	0x3ecc362b	0.39885077
13	0x3e912093	0.28345165
14	0x3e97b991	0.29633763
15	0x3e8a05f0	0.26957655
16	0x3eab5312	0.33461815
17	0x3eceb6e6	0.40373915
18	0x3e3c194e	0.18369028
19	0x3e714d0d	0.23564549
20	0x3e9134ff	0.28360745
21	0x3d83054a	0.06397493
22	0x3ee6967b	0.45036682
23	0x3ec2b2b4	0.38026965
24	0x3f05bc59	0.5224052
25	0x3eee4467	0.46536562
26	0x3edf63fe	0.43630975
27	0x3ee2d4cb	0.44302973
28	0x3f19eec3	0.60129946
29	0x3ebed08e	0.3726849
30	0x3ec14556	0.37748212
31	0x3d88a087	0.06671243
32	0x3e5dadfe	0.21648404
33	0x3f1fada0	0.62374306
34	0x3ebe4d3a	0.37168294
35	0x3e10c29a	0.14136735
36	0x3eb3bdfd	0.35105887
37	0xbd401ebe	-0.046904318
38	0x3edfb6b9	0.43694094
39	0x3ef1e819	0.4724739
40	0x3ef35dd3	0.4753252
41	0x3ebb467d	0.36577216
42	0x3ec8a0be	0.39185137
43	0x3ed87b08	0.42281365
44	0x3f0a0700	0.5391693
45	0x3ec0a2f8	0.37624335
46	0x3f5bf891	0.8592616
47	0x3e900778	0.28130698
48	0x3ed687bb	0.4190043
49	0x3f310a9a	0.691568
50	0x3d8aaa3a	0.067707494
51	0x3edd21b8	0.43189788
52	0x3ede2f09	0.4339526
53	0x3df517ac	0.11967406
54	0x3f039cd4	0.51411176
55	0x3f270340	0.65239334
56	0x3ef3bfe6	0.47607344
57	0x3f0f6940	0.56019974
58	0x3e9efad3	0.3105074
59	0x3eff119b	0.4981812
60	0x3e7370a2	0.23773435
61	0x3e9d3da5	0.30711094
62	0x3ec7a383	0.38991937
63	0x3ef59365	0.47964016

layers.1.norm.bias f4 [64]
0	0xbdddc9c4	-0.10829499
1	0xbd635c0c	-0.055507705
2	0x3caf9025	0.021431038
3	0xbbc34d3c	-0.005960135
4	0xbc1c155f	-0.00952658
5	0xbdacbd8e	-0.08434592
6	0xbd27c5fc	-0.040960297
7	0xbcd0f797	-0.025508685
8	0xbe382a37	-0.17984854
9	0xbe0824ad	-0.1329524
10	0xbe015c24	-0.12632805
11	0x3ca902ce	0.02063122
12	0xbde8797a	-0.11351295
13	0xbda08844	-0.078384906
14	0x3a0f12c7	0.0005457815
15	0xbd45af33	-0.048262786
16	0xbe173fbe	-0.1477041
17	0xbde2efce	-0.11080895
18	0xbe11ae76	-0.14226708
19	0xbdff56b6	-0.12467711
20	0xbe208f76	-0.15679726
21	0xbd8a754f	-0.06760656
22	0xbd868607	-0.065685324
23	0xbdefbbfc	-0.11705777
24	0xbe14f3bb	-0.14546101
25	0xbd39ba75	-0.045343835
26	0xbe32498c	-0.17410868
27	0xbd2fe4a1	-0.042942647
28	0xbdc786ff	-0.09742545
29	0xbcb32887	-0.02186991
30	0x3c713366	0.014721727
31	0xbdacc788	-0.08436495
32	0xbc8a79d6	-0.016903799
33	0xbe196b1b	-0.14982264
34	0xbdc45e3a	-0.09588285
35	0xbda2248d	-0.07917128
36	0xbd49a110	-0.049225867
37	0x3ae91511	0.0017782768
38	0xbd324818	-0.043525785
39	0xbd9e464f	-0.07728254
40	0xbde894c8	-0.11356503
41	0xbcc80598	-0.02441673
42	0xbcfe4101	-0.031036856
43	0x3c31a571	0.010842667
44	0x3b442268	0.0029927734
45	0xbdb5a4b0	-0.08869302
46	0xbd991c11	-0.07476056
47	0xbe207efa	-0.15673438
48	0xbd17fb47	-0.03710487
49	0xbe033397	-0.12812649
50	0xbddcdf0f	-0.107847326
51	0xbde0129a	-0.10941048
52	0xbde1c1f4	-0.11023322
53	0xbd997bfa	-0.0749435
54	0xbd48c438	-0.049015254
55	0xbdb7ae97	-0.08968847
56	0xbe02e27d	-0.12781711
57	0xbddab749	-0.1067949
58	0xbdc2788e	-0.0949565
59	0xbdd10d6b	-0.102076374
60	0xbd96672c	-0.07343897
61	0xbd050d96	-0.03248366
62	0xbd0e41b0	-0.034730613
63	0xbbb4ca39	-0.005517271

layers.2.gat.att_src f4 [1, 4, 16]
0	0x3d86ef3e	0.065886006
1	0xbd1b4217	-0.037904825
2	0x3d53818f	0.05163723
3	0x3e05ce51	0.13066985
4	0x3d9e4f02	0.07729913
5	0xbb93fc01	-0.004516125
6	0xbd0d19fc	-0.03444861
7	0xbdc085ee	-0.09400545
8	0xbc8cdad7	-0.017194195
9	0x3dc83a33	0.097767256
10	0x3d9b8f75	0.07595722
11	0xbd8c3b21	-0.068472154
12	0xbd2840e2	-0.041077502
13	0xbda9850b	-0.08277329
14	0xbd48db19	-0.049037073
15	0x3e69866f	0.22805189
16	0x3e76d0c4	0.24103075
17	0xbd2e8ecc	-0.04261665
18	0xbe3bd3a8	-0.18342459
19	0xbe4f84e9	-0.20265545
20	0x3e50e51d	0.203999
21	0xbde647b3	-0.11244144
22	0x3e1224f3	0.14271908
23	0x3dd30336	0.10303347
24	0x3e81dd1d	0.2536401
25	0x3e30549d	0.17219777
26	0x3d369a4d	0.044580746
27	0x3e0f26d8	0.13979661
28	0x3e8ac951	0.27106717
29	0x3e72b702	0.23702624
30	0x3de63449	0.11240441
31	0xbe9c509c	-0.3053025
32	0xbc260fdb	-0.010135616
33	0xbd9583ee	-0.07300554
34	0xbe69472a	-0.22781053
35	0xbe1626b4	-0.14663202
36	0xbe08edc9	-0.13371958
37	0x3e93fd73	0.28904304
38	0xbdf84f76	-0.12124531
39	0xbdfd0b37	-0.12355655
40	0x3d03cac5	0.032175798
41	0xbdcbc688	-0.09949976
42	0x3c8c2c46	0.017110955
43	0xbe311600	-0.17293549
44	0xbdcf3c3c	-0.10118911
45	0xbdc293c6	-0.09500842
46	0x3e195d15	0.14976914
47	0xbdcdf645	-0.10056738
48	0x3d22824b	0.03967504
49	0xbdf25977	-0.1183347
50	0x3b8833d1	0.0041565676
51	0x3c96014d	0.018311167
52	0x3e197732	0.14986876
53	0xbc5d52d7	-0.01350852
54	0x3de6b98b	0.11265858
55	0xbcca7472	-0.024713729
56	0x3d4f4f57	0.050612774
57	0xbb073bad	-0.0020634935
58	0x3d6de4a7	0.058079388
59	0x3db4a267	0.08820038
60	0xbc0b867f	-0.008515953
61	0x3dc389c1	0.09547759
62	0x3b8439be	0.0040352037
63	0x3daf5ba5	0.08562402

layers.2.gat.att_dst f4 [1, 4, 16]
0	0xbe3b67c6	-0.18301305
1	0xbce42d8f	-0.027853755
2	0x3b77b479	0.003779678
3	0xbdb72e6f	-0.089444034
4	0xbcc7eccd	-0.024404908
5	0x3ba6ca0d	0.0050900043
6	0x3d8eaa71	0.06966103
7	0x3d8107b6	0.06300299
8	0x3dd94b5c	0.10610077
9	0xbd8af6ca	-0.067853525
10	0xbca725f7	-0.020403845
11	0x3d00ca32	0.03144283
12	0x3d143673	0.03618474
13	0x3e0538a9	0.13009895
14	0x3c8c856b	0.017153462
15	0xbe8dbc39	-0.27682665
16	0x3c4a5fc5	0.012351935
17	0xbcbd1286	-0.023080122
18	0xbd2e5f89	-0.04257158
19	0xbd24c70d	-0.040228892
20	0x3d367066	0.044540785
21	0x3d2cb451	0.04216415
22	0xbc95a106	-0.018265259
23	0x3d5cf115	0.05394085
24	0xbd865df6	-0.065608904
25	0xbd85f81b	-0.06541463
26	0x3d80ab83	0.06282713
27	0xbd90fa5f	-0.070790045
28	0x3da95346	0.08267836
29	0x3cea3493	0.028589522
30	0xbd7b6ed9	-0.06138501
31	0xbd948ad6	-0.07253043
32	0xba8eb29e	-0.0010886972
33	0x3d6b21e1	0.057405356
34	0x3e3527b7	0.17690931
35	0x3e2e83af	0.17042421
36	0x3e0b0b2e	0.13578483
37	0xbe89b03a	-0.26892263
38	0x3e1cbe6e	0.15307018
39	0x3dd86053	0.105652474
40	0x3a4b473c	0.000775445
41	0x3d91229b	0.070866786
42	0x3ccbc40a	0.024873752
43	0x3de7c2c4	0.113164455
44	0x3db7dd08	0.08977705
45	0x3df9b619	0.121929355
46	0xbe5168af	-0.2045009
47	0x3de40093	0.11132922
48	0xbd965cfc	-0.07341954
49	0x3e0d880a	0.13821426
50	0xbca54f8e	-0.020179536
51	0xbceebc38	-0.029142484
52	0xbde1a101	-0.11017037
53	0x3c4b788a	0.0124188755
54	0xbdfa7d86	-0.12230973
55	0xba851b91	-0.001015531
56	0xbd25db9e	-0.040492646
57	0x3bbccd90	0.0057618096
58	0xbd99a622	-0.075023904
59	0xbda8aa8e	-0.08235656
60	0xbc18ace9	-0.009318569
61	0xbdbdc1a2	-0.09265448
62	0xbd3b6964	-0.045754805
63	0xbd787f79	-0.060668442
