architecture_experiments/baseline_gnn_model.pt (torch, 23862 bytes, 6 tensors)

conv1.bias f4 [64]
0	0xbe0c243a	-0.13685694
1	0x3c5713d0	0.013127282
2	0xbd8fadb0	-0.0701555
3	0xbe3cf3fb	-0.18452446
4	0x3d9759cd	0.07390175
5	0x3b8ca1b2	0.0042917365
6	0x3dcd57fc	0.10026547
7	0x3c4c65ba	0.012475425
8	0x3c52d320	0.012867719
9	0x3d0b3d33	0.03399391
10	0x3cc3f816	0.023922008
11	0x3ca4ee65	0.020133207
12	0x3d333bf7	0.04375836
13	0x3db6c588	0.08924395
14	0x3c3efebe	0.011657415
15	0xbb58276d	-0.0032982484
16	0xbbdc34dd	-0.006720169
17	0x3d6cff63	0.057860743
18	0x3cf3c872	0.029758666
19	0x3cfc2c6f	0.030782906
20	0x3deeda85	0.11662773
21	0x3de22802	0.11042787
22	0xbcf86e05	-0.030325899
23	0x3d0c191c	0.034203634
24	0x3d15208d	0.036407996
25	0xbca9c28f	-0.020722656
26	0xbce2b48d	-0.027673984
27	0xbd2e2f5e	-0.04252564
28	0x3cf280da	0.029602457
29	0xba8681c6	-0.0010262064
30	0xbc919337	-0.017770393
31	0x3d03b34a	0.032153405
32	0x3d3b1a98	0.04567966
33	0x3dae3455	0.08506075
34	0x3c9ec151	0.01937929
35	0xbcb86797	-0.022510333
36	0x3b5bbd0b	0.0033529426
37	0x3cff0aab	0.031133017
38	0x3c904352	0.017610226
39	0xbc7811f8	-0.015141003
40	0xbce4652b	-0.027880272
41	0x3cdcd9ce	0.026959326
42	0x3cd5f6e1	0.026118698
43	0x3d7c1b8b	0.061549705
44	0x3d8ea53b	0.06965109
45	0x3acd612b	0.0015669217
46	0xbc5733f2	-0.013134943
47	0x3b66e7be	0.0035233344
48	0x3d0d1d68	0.034451872
49	0x3c2a9c72	0.010413276
50	0x3d2b75c4	0.041860357
51	0xbcc5bb8f	-0.024137286
52	0x3d3683a4	0.044559136
53	0x3da807c5	0.08204607
54	0x3d50ab5d	0.050944675
55	0x3d140e6d	0.03614657
56	0xbe2eb35b	-0.17060606
57	0xbde52d85	-0.11190323
58	0x3b779411	0.0037777463
59	0xbcfd4477	-0.030916436
60	0x3c785c10	0.015158668
61	0xbda1c11d	-0.078981616
62	0x3d9178a8	0.071030915
63	0x3d773161	0.060349826

conv1.lin.weight f4 [64, 11]
0	0xbf3ff0f7	-0.7497706
1	0x3ef15d5d	0.47141543
2	0xbef18b83	-0.47176751
3	0xbf61251f	-0.8794727
4	0x3db2acba	0.08724351
5	0x3cce8b3c	0.025212876
6	0xbdb2612a	-0.08709939
7	0xbdff82bd	-0.12476108
8	0xbeb6d00d	-0.35705605
9	0xbd5338b4	-0.05156775
10	0xbeb02ef1	-0.34410813
11	0x3dc2c062	0.0950935
12	0xbe4286e8	-0.18996775
13	0x3d090320	0.033450246
14	0x3e008cef	0.12553762
15	0xbfa34e4d	-1.275827
16	0x3e9fc7ec	0.31207216
17	0xbf697f66	-0.9121002
18	0xbf4d7fab	-0.8027293
19	0x3e26ce8e	0.16289732
20	0xbdc016fe	-0.093793854
21	0xbf699399	-0.9124084
22	0xbf056375	-0.52104884
23	0x3eb5429c	0.3540238
24	0xbf1257ea	-0.57165396
25	0x3e868865	0.26275936
26	0x3e22b425	0.15889032
27	0xbeab567c	-0.3346442
28	0x3e486a8c	0.19571894
29	0xbe538669	-0.20656742
30	0x3c1e8219	0.009674572
31	0xbe3b3b9f	-0.18284462
32	0xbcb19324	-0.021676607
33	0xbf0a2bc3	-0.53973025
34	0x3eee491d	0.46540156
35	0xbf0130ca	-0.5046507
36	0xbf256672	-0.64609444
37	0x3d8698cf	0.06572115
38	0xbefec38d	-0.49758568
39	0xbe45537a	-0.19270125
40	0xbeb0b3ec	-0.3451227
41	0xbeb0eef7	-0.34557316
42	0xbe050725	-0.12991007
43	0xbe260f88	-0.16216862
44	0xbe3bb643	-0.18331246
45	0xbd76bd1d	-0.060238946
46	0xbe2814c4	-0.16414171
47	0x3ef77e05	0.48338333
48	0x3cbeb0d1	0.023277672
49	0x3d570217	0.052492227
50	0x3e4228e9	0.18960918
51	0x3eb1e845	0.3474752
52	0x3e89febf	0.26952168
53	0x3ee8bf29	0.45458344
54	0x3e5e7eab	0.21728007
55	0x3e90e40f	0.28298995
56	0x3d85bf4c	0.065306276
57	0x3dfb69dc	0.122760504
58	0x3d71cb07	0.059031513
59	0xbd0d6d63	-0.034528147
60	0x3e355421	0.17707874
61	0x3e5a9e87	0.21349536
62	0x3e05c320	0.13062716
63	0x3d75e9a0	0.060037255
64	0x3ec17849	0.37787083
65	0x3d07443f	0.03302407
66	0x3ec4f9b5	0.3847176
67	0xbe349934	-0.17636567
68	0x3e0811d0	0.13288045
69	0x3e36dd0d	0.17857762
70	0xbde34edd	-0.11099026
71	0x3c86463d	0.016390914
72	0x3d8bb050	0.06820738
73	0xbe0e3019	-0.13885535
74	0x3db12631	0.086498626
75	0xbc254140	-0.010086358
76	0x3e820206	0.2539217
77	0xbc5ee37c	-0.013604041
78	0x3dfe2659	0.12409658
79	0x3e9bade1	0.30406097
80	0xbe7ba8bc	-0.24576086
81	0xbea5a31d	-0.32351008
82	0xbe9280de	-0.28613943
83	0x3e466232	0.19373396
84	0x3ef2ffbc	0.47460735
85	0x3be12752	0.0068711424
86	0xbea4ddea	-0.32200557
87	0xbbeff5c3	-0.0073229983
88	0x3da0289c	0.078202456
89	0x3baffb4f	0.0053705345
90	0xbce3175e	-0.027721103
91	0x3db2e51e	0.08735107
92	0xbc513407	-0.012768752
93	0xbc300bbe	-0.010744987
94	0x3e2428f7	0.16031252
95	0x3e55e66d	0.20888682
96	0x3e3f5fd3	0.18688898
97	0xbc901359	-0.01758735
98	0x3d3f4ebc	0.046705946
99	0x3e280b54	0.16410571
100	0x3dac6fe7	0.08419781
101	0xbf04bf8e	-0.5185479
102	0xbe64efb0	-0.22357059
103	0x3e1b0c8f	0.1514151
104	0x3e0f38b3	0.13986473
105	0xbeb305ed	-0.3496546
106	0xbe982dc6	-0.29722422
107	0x3d3a04ec	0.04541485
108	0x3e0c3f99	0.13696136
109	0xbe632a86	-0.2218419
110	0x3dbead67	0.093104176
111	0x3e1ec0b4	0.15503198
112	0xbd1811cd	-0.03712635
113	0x3de2742b	0.110573135
114	0x3d4a32c2	0.049364813
115	0xbda4be16	-0.080440685
116	0xbdb75703	-0.08952143
117	0xbdcb4abe	-0.09926365
118	0x3e7260dd	0.23669763
119	0xbb8afb7e	-0.004241406
120	0x3dbe3974	0.09288302
121	0x3ed3d1f5	0.41371122
122	0x3e259925	0.16171701
123	0xbd359102	-0.044327743
124	0x3dc8fe4c	0.09814128
125	0xbe03dc8c	-0.128771
126	0xbdeef0e0	-0.11667037
127	0x3e1a13d8	0.15046632
128	0xbdf27949	-0.118395396
129	0x3e400b30	0.18754268
130	0xbda6ff25	-0.08154134
131	0xbd96d163	-0.07364156
132	0x3d5f5e75	0.05453344
133	0xbe9f3653	-0.31096134
134	0x3dc2e713	0.0951673
135	0x3ecca6e1	0.39971069
136	0xbeadccc5	-0.3394529
137	0xbebe8856	-0.3721339
138	0x3c01c1de	0.007919757
139	0x3e861ab2	0.26192242
140	0x3e5b9456	0.21443304
141	0x3e39b3e9	0.18135037
142	0xbe5547c5	-0.20828159
143	0x3e7b663f	0.24550723
144	0xbeb46850	-0.35235834
145	0xbeb50178	-0.35352683
146	0xbe0c0bcf	-0.1367638
147	0x3d6deacc	0.058085248
148	0x3de94dc8	0.11391789
149	0x3d945151	0.072420724
150	0xbc214aaa	-0.009844461
151	0x3e7742a4	0.24146515
152	0xbe819203	-0.2530671
153	0xbe693119	-0.22772636
154	0x3db8b54a	0.09018953
155	0x3c748f51	0.014926747
156	0x3d478ed6	0.048720203
157	0x3e2b1157	0.16705833
158	0x3d21afa9	0.039474163
159	0xbdfcab59	-0.123373695
160	0x3d78cf52	0.06074459
161	0x3e3e3829	0.18576111
162	0xbe0a7b24	-0.13523537
163	0xbdbcd6a5	-0.09220628
164	0xbd75979c	-0.05995904
165	0xbb9b598e	-0.0047409004
166	0xbcabefe2	-0.020988408
167	0x3e97a984	0.29621518
168	0xbebba776	-0.366512
169	0x3e3e6019	0.18591346
170	0x3ca6a8d9	0.020344185
171	0xbee0b768	-0.43889928
172	0x3c65586b	0.013998131
173	0x3c249df2	0.010047423
174	0xbd74905f	-0.059707996
175	0x3eb3010b	0.34961733
176	0xbe80e35b	-0.25173458
177	0x3eabd2fc	0.33559406
178	0xbf561fc0	-0.83642197
179	0xbf8001c7	-1.0000542
180	0x3ddfe23c	0.10931823
181	0xbf763eb2	-0.96189415
182	0xbdab7da2	-0.08373572
183	0xbe2d5b3b	-0.16929333
184	0xbeaf7d89	-0.34275463
185	0xbdf6dfe8	-0.120544255
186	0xbeb79d56	-0.35862225
187	0x3d9f2776	0.077711985
188	0xbc9fdb2c	-0.019513689
189	0xbe9d27a1	-0.30694297
190	0x3ea1f2df	0.31630608
191	0x3e00c83a	0.1257638
192	0x3b0a1a28	0.002107272
193	0x3d3abf84	0.0455928
194	0xbe16ea61	-0.14737846
195	0x3e21aadf	0.15787838
196	0x3eb91685	0.36149994
197	0xbdbc6ae8	-0.09200078
198	0x3d469dfb	0.048490506
199	0xbce35c09	-0.027753847
200	0x3e97a592	0.29618508
201	0x3eb03b4d	0.34420243
202	0x3eaf8e89	0.34288433
203	0x3e79d8b8	0.24399078
204	0xbdf5a3e6	-0.11994152
205	0xbdb599e2	-0.088672414
206	0x3e43dcae	0.19127151
207	0xbdd31386	-0.10306458
208	0xbd0c3801	-0.034233097
209	0x3ef55426	0.47915763
210	0xbe8d3dfd	-0.27586356
211	0xbd1684cc	-0.03674774
212	0x3e72813b	0.2368211
213	0x3e626a4f	0.22110866
214	0xbffddd5a	-1.9833176
215	0xbe8d8e46	-0.2764761
216	0x3e525c60	0.20543051
217	0xbd554f8c	-0.052077815
218	0x3d87a5e8	0.06623441
219	0xbefd5624	-0.49479783
220	0x3e6a0d8c	0.2285673
221	0xbe718df8	-0.23589313
222	0x3d081766	0.03322544
223	0x3e8a67a9	0.2703221
224	0xbe69b770	-0.22823882
225	0x39f2ed68	0.00046334718
226	0x3df2b2fd	0.118505456
227	0x3ead91b9	0.3390024
228	0xbd98c502	-0.07459451
229	0x3efe90c3	0.4971982
230	0x3c8630c5	0.016380677
231	0x3f178182	0.5918199
232	0xbecb2c34	-0.39682162
233	0xbf66ad2b	-0.90107983
234	0xbe763a13	-0.24045591
235	0x3e025834	0.1272896
236	0xbe595e5c	-0.21227401
237	0x3cbe332f	0.023217766
238	0x3b2a0070	0.0025940202
239	0xbe342b78	-0.17594707
240	0x3d6251c6	0.055253766
241	0xbbc9e22f	-0.0061609964
242	0xbe7adbb3	-0.24497871
243	0x3da3c10b	0.079958044
244	0xbd8149aa	-0.063128784
245	0x3e826e13	0.25474605
246	0xbe798a48	-0.24369156
247	0x3e0c0c5f	0.13676594
248	0x3e97041b	0.2949532
249	0x3de8085c	0.113297194
250	0x3d38c966	0.045113944
251	0x3e677107	0.2260171
252	0x3e53b162	0.20673135
253	0x3e465f65	0.19372328
254	0x3e04fe54	0.12987643
255	0xbe773753	-0.24142198

conv2.bias f4 [64]
0	0x3d469446	0.04848125
1	0xbd0bb966	-0.034112357
2	0x3d7038f2	0.058648057
3	0x3d905430	0.070473075
4	0x3b1d597c	0.0024009636
5	0x3d93d704	0.07218745
6	0x3d657ec5	0.0560291
7	0xbd0c7877	-0.03429457
8	0xbc69d84d	-0.0142727615
9	0x3da1b561	0.078959234
10	0xbc88fee9	-0.016723113
11	0xbd227fa0	-0.039672494
12	0x3d2a2810	0.041542113
13	0xbd07c7da	-0.033149578
14	0xbc02ed65	-0.00799117
15	0x3d2cdf74	0.04220529
16	0xbdbf9bfe	-0.09355925
17	0xbd2bd5ac	-0.04195182
18	0x00000000	0.0
19	0xbd136a2e	-0.035989933
20	0xbcb0fe3d	-0.021605605
21	0x3cfe746d	0.031061376
22	0x3d17c05e	0.03704869
23	0x3d178e7f	0.03700113
24	0x3de6b077	0.11264127
25	0xbc3fdb2c	-0.0117099695
26	0x3da4c7b3	0.08045902
27	0x3d50c5c2	0.050969847
28	0xbd1bda0d	-0.038049746
29	0x3cf3afbe	0.029746886
30	0x3d7a268d	0.06107192
31	0x3c17f1c7	0.009273953
32	0x3d33331a	0.043749906
33	0xbd661986	-0.056176685
34	0x3d297ee5	0.04138078
35	0x3d0092b2	0.0313899
36	0xbe0d697e	-0.13809773
37	0x3d360375	0.04443689
38	0x3d3f98bf	0.04677653
39	0x3d8dab7e	0.06917475
40	0x3dfcc81b	0.123428546
41	0xbd15c844	-0.03656794
42	0xbc90b0bd	-0.0176624
43	0x3db230f6	0.08700745
44	0x3bd68f30	0.006547831
45	0xbd9f369b	-0.07774087
46	0xbc0cef70	-0.008602008
47	0xbd4b89fd	-0.049692143
48	0xbcd05975	-0.025433281
49	0xbe407197	-0.18793331
50	0x3cdbb72d	0.026820743
51	0xbe0f4876	-0.13992485
52	0x3d637f0e	0.05554109
53	0xbcdb50d0	-0.026771933
54	0xbcbf614f	-0.02336183
55	0x3c78513e	0.015156088
56	0x3d91c4b4	0.07117596
57	0xbc828642	-0.01593316
58	0xba9c4743	-0.0011923093
59	0xbc651df4	-0.013984192
60	0x3d6ce8a6	0.05783906
61	0x3db0a3f3	0.08625021
62	0x3d90afb8	0.07064766
63	0xbd8418af	-0.064500205

conv2.lin.weight f4 [64, 64]
0	0xbddc5d19	-0.107599445
1	0x3e303b4c	0.1721012
2	0xbdb6a76e	-0.089186534
3	0x3c67273c	0.014108475
4	0x3d8deeae	0.0693029
5	0x3e5a5c07	0.21324168
6	0x3e048cc0	0.12944317
7	0x3e39d2f8	0.18146884
8	0xbd977ea0	-0.07397199
9	0x3d8b4ce2	0.068017736
10	0x3d38621f	0.04501545
11	0x3e1fc527	0.15602551
12	0xbe2ffb3d	-0.17185684
13	0xbdae8324	-0.08521107
14	0xbdf36a92	-0.11885561
15	0xbe744393	-0.23853903
16	0xbe9e91e0	-0.3097067
17	0x3dfd75ac	0.1237596
18	0x3e40c9a5	0.18826921
19	0xbdd40132	-0.103517905
20	0xbb40916d	-0.0029383556
21	0x3e8ae7cd	0.27129975
22	0x3debc7eb	0.11512741
23	0x3d6805a4	0.056646004
24	0x3ea36427	0.31912348
25	0xbd77b545	-0.060475606
26	0xbe0b608b	-0.13611047
27	0xbe92f2ed	-0.28700963
28	0xbd952f25	-0.07284383
29	0xbe690995	-0.22757562
30	0xbdbbf65f	-0.09177851
31	0xbdc6c8be	-0.09706257
32	0x3e00d5b9	0.12581529
33	0xbdee4d20	-0.11635804
34	0xbe359c31	-0.17735364
35	0x3d7b9a24	0.061426297
36	0x3e3ff70c	0.18746585
37	0xbe19099e	-0.14945075
38	0xbe001ae8	-0.12510264
39	0xbe13a128	-0.14416945
40	0xbdfb7b0f	-0.12279331
41	0xbde0155d	-0.10941575
42	0x3b29bbf6	0.0025899387
43	0x3d9f94a3	0.07792022
44	0x3d5565a9	0.052098904
45	0xbd550468	-0.052006155
46	0x3e374c1c	0.17900127
47	0x3e20d56a	0.15706411
48	0x3e0fc122	0.14038518
49	0x3e0c9a23	0.13730673
50	0x3e82ee12	0.25572258
51	0xbe1607d1	-0.14651419
52	0xbdaeabaa	-0.08528836
53	0x3d4cd8ec	0.05001156
54	0xbd89cd26	-0.06728582
55	0x3d204c06	0.039135
56	0xbe6405b0	-0.22267795
57	0xbe0b171c	-0.13583034
58	0x3d56d1e1	0.05244625
59	0x3dda8950	0.106707215
60	0x3e54456d	0.20729609
61	0xbe7e8b34	-0.2485779
62	0x3c592f09	0.013255843
63	0x3c9f7548	0.019465104
64	0xbd8c0a6b	-0.068379246
65	0xbd955c38	-0.0729298
66	0xbdbda116	-0.0925924
67	0xbdd6e97c	-0.10493752
68	0x3cf91c53	0.030409014
69	0x3e20180f	0.15634178
70	0x3d5b88df	0.053597327
71	0xbd86d1e8	-0.06583005
72	0xbdcc7ed6	-0.099851295
73	0x3dd82fb9	0.105559774
74	0xbc42ecdd	-0.011897293
75	0xbe607268	-0.21918643
76	0x3ca4ccce	0.02011719
77	0xbd530320	-0.051516652
78	0xbe4cf7a1	-0.20016338
79	0x3e09852d	0.13429709
80	0xbe14f8cc	-0.14548033
81	0xbe39a487	-0.18129168
82	0x3d4ab9ec	0.049493715
83	0xbe6dc234	-0.23218614
84	0xbe59d3ad	-0.21272154
85	0xbe7135ed	-0.23555727
86	0xbdc2affa	-0.09506221
87	0x3cf05c08	0.029340759
88	0x3e017df1	0.12645699
89	0x3e178361	0.14796211
90	0xbc3ed596	-0.011647603
91	0xbe38db12	-0.18052319
92	0x3db06b77	0.08614247
93	0x3d6aa5fa	0.057287194
94	0xbdc3211b	-0.09527799
95	0x3e0e9bf6	0.13926682
96	0xbda23b6d	-0.07921491
97	0x3d3519af	0.044213947
98	0xbd9b3438	-0.07578319
99	0x3b37b87d	0.0028033548
100	0xbe4ffe06	-0.20311746
101	0x3d4a84ef	0.04944318
102	0xbc9678a0	-0.018368065
103	0x3ca95df6	0.020674687
104	0x3c59a6cb	0.013284395
105	0x3e15ced5	0.14629681
106	0xbd9957b8	-0.07487434
107	0xbdd28741	-0.10279704
108	0xbe6cbca1	-0.23118831
109	0x3e1687f2	0.14700297
110	0xbe61d6e1	-0.22054626
111	0x3d8e2f23	0.06942584
112	0x3df43b3d	0.11925361
113	0x3e084da1	0.13310863
114	0xbe7bafc0	-0.24578762
115	0x3e32720e	0.17426321
116	0x3cdc82e7	0.026917888
117	0xbe3ad81d	-0.18246503
118	0xbd2981b6	-0.041383468
119	0xbe67b57a	-0.22627822
120	0xbda01657	-0.07816761
121	0xbe1363a9	-0.14393486
122	0x3daed4af	0.0853666
123	0xbc3ebb49	-0.011641332
124	0xbe0c8282	-0.1372166
125	0x3e18408e	0.14868376
126	0xbd9fdf69	-0.07806284
127	0x3e09055e	0.13380954
128	0x3e17960f	0.14803337
129	0xbea40605	-0.32035843
130	0xbdaa9d62	-0.083308
131	0x3d9bcbca	0.07607229
132	0x3e7098c6	0.23495778
133	0xbcce25f0	-0.025164574
134	0x3e79333d	0.24335952
135	0xbe4f4c58	-0.20243967
136	0x3e4d1794	0.20028526
137	0x3d987a56	0.07445209
138	0xbd1c7895	-0.038200933
139	0x3d83fadc	0.06444332
140	0xbda033bf	-0.0782237
141	0xbc7a9b0c	-0.015295755
142	0xbd60feba	-0.054930426
143	0x3e23658c	0.15956706
144	0x3e38bdfa	0.1804122
145	0xbd6d715d	-0.05796944
146	0xbe08c0c5	-0.13354786
147	0xbd21cd7d	-0.03950261
148	0x3daa9973	0.08330049
149	0x3e08558a	0.1331388
150	0x3c020a75	0.007937063
151	0xbb85db23	-0.004084961
152	0x3c3f333d	0.011669931
153	0x3cc5e1de	0.024155553
154	0xbd6eb8d7	-0.058281746
155	0xbe53c23f	-0.20679568
156	0xbbfef765	-0.0077809566
157	0xbe937df1	-0.28807023
158	0x3cd3ddbc	0.025862567
159	0x3eabb603	0.335373
160	0x3c632922	0.013864787
161	0x3e77440a	0.24147049
162	0xbe41333c	-0.188672
163	0x3e0b826f	0.13623975
164	0x3dd70110	0.104982495
165	0x3e3c20c2	0.18371871
166	0x3e752851	0.2394116
167	0x3df3f6ff	0.11912345
168	0xbb5975e4	-0.003318184
169	0xbc9ee09f	-0.019394217
170	0x3e8073ec	0.2508844
171	0xbe9d70db	-0.30750164
172	0x3e48b07c	0.19598573
173	0xbe972a2e	-0.29524368
174	0xbe402538	-0.18764198
175	0x3e8cecb8	0.27524352
176	0x3df5c05f	0.119995825
177	0xbcdee402	-0.027208332
178	0xbdbad019	-0.09121723
179	0x3eabc889	0.33551434
180	0x3c171872	0.009222137
181	0x3d9e46da	0.077283576
182	0xbe960fb4	-0.29308856
183	0x3e0616f6	0.13094696
184	0x3c83d313	0.016091859
185	0x3e311a59	0.17295207
186	0x3dd5d840	0.10441637
187	0xbe9e846c	-0.30960405
188	0xbdb71201	-0.08938981
189	0xbda3f396	-0.08005445
190	0x3d40da51	0.047083203
191	0xbea3e61c	-0.32011497
192	0x3d92d434	0.07169381
193	0xbddb70fc	-0.107149094
194	0xbc61bb96	-0.013777634
195	0x3eac9d57	0.3371379
196	0x3dfdcd9d	0.12392733
197	0x3df11694	0.117718846
198	0x3e79eb7e	0.2440624
199	0xbc5241c1	-0.01283306
200	0x3d7fa62d	0.062414337
201	0x3d9c0f48	0.07620102
202	0xbd1c98e2	-0.038231738
203	0x3e6ed1fd	0.23322292
204	0xbe3d5f50	-0.1849339
205	0x3e74038d	0.2382948
206	0x3e56b332	0.20966795
207	0x3da2581c	0.07926962
208	0x3e2e59dd	0.17026468
209	0x3e0988a7	0.13431035
210	0x3da6e111	0.08148397
211	0xbe169a6a	-0.14707342
212	0x3e663a1e	0.22483107
213	0xbd13f81a	-0.03612528
214	0xbd0cc4be	-0.034367315
215	0xbd928cf7	-0.07155793
216	0x3ea93b28	0.33052945
217	0xbe148e8c	-0.14507502
218	0xbd74a48e	-0.059727244
219	0x3e30c4c8	0.17262566
220	0x3e3a2d94	0.18181449
221	0x3e1d7005	0.15374763
222	0x3da35e7c	0.07977006
223	0xbdccb2b0	-0.099950194
224	0x3da17638	0.078838766
225	0x3e1638b9	0.14670075
226	0x3df6cc46	0.12050681
227	0x3d672af2	0.05643744
228	0x3c6f2458	0.014596067
229	0xbe0745bd	-0.13210197
230	0x3dee5ea0	0.11639142
231	0x3e718520	0.2358594
232	0x3e057b46	0.13035306
233	0x3e56ced4	0.20977336
234	0xbd82f10e	-0.06393634
235	0xbe84db6c	-0.25948656
236	0x3bad3caf	0.005286775
237	0xbe135f4d	-0.14391823
238	0xbca6630d	-0.020310903
239	0x3e7547c2	0.23953155
240	0x3ad3479c	0.0016119364
241	0x3e0a6a96	0.13517222
242	0x3e388604	0.18019873
243	0x3e1cf566	0.15327987
244	0xbd380aed	-0.044932295
245	0xbd256e65	-0.040388484
246	0xbd8c015a	-0.06836195
247	0x3e2a40ab	0.16626231
248	0x3b8f2f82	0.004369677
249	0x3e2209e3	0.15824084
250	0xbd82acd1	-0.06380618
251	0x3e116b0e	0.14200994
252	0x3d69a8da	0.057045795
253	0x3e03f2fe	0.12885663
254	0xbdb5f211	-0.08884061
255	0x3d2ab423	0.041675698

lin.weight f4 [5, 64]
0	0x3cd873c4	0.026422389
1	0x3d58021b	0.052736383
2	0x3e6214ef	0.22078298
3	0x3d91d7b4	0.0712122
4	0xbe935ebd	-0.28783217
5	0x3e21b419	0.15791358
6	0x3d3e1fd7	0.046417084
7	0x3d396f13	0.045271944
8	0x3d6df7bd	0.05809759
9	0x3d7b6b37	0.061381545
10	0xbbe02a61	-0.0068409895
11	0x3d9a210c	0.075258344
12	0x3e08fdb3	0.13378029
13	0x3de1bab2	0.110219374
14	0xbe360fbd	-0.17779441
15	0x3b930b59	0.0044874367
16	0xbf2eb1a6	-0.6823982
17	0xbd516c9b	-0.051128965
18	0x3dbe1a08	0.09282309
19	0xbea96012	-0.33081108
20	0xbe7aef8e	-0.24505445
21	0xbd84d3ae	-0.06485687
22	0xbeac805e	-0.33691686
23	0x3b1ae471	0.0023634697
24	0xbf421552	-0.7581378
25	0xbd5be1df	-0.053682204
26	0x3e490386	0.1963025
27	0xbdccc09f	-0.09997677
28	0x3e2339e8	0.15940058
29	0x3e0f7e97	0.14013134
30	0x3c882227	0.016617848
31	0x3deb7d37	0.11498492
32	0x3d3b6c97	0.045757856
33	0xbef933d1	-0.48672345
34	0xbd763bdd	-0.060115684
35	0x3c4f4789	0.012651333
36	0x3e2827b7	0.164214
37	0x3e613872	0.21994188
38	0xbe014706	-0.1262475
39	0x3d5b467e	0.053534023
40	0x3e993087	0.29919836
41	0xbe141a2c	-0.14463109
42	0xbe360eb6	-0.1777905
43	0x3e6aab52	0.22916916
44	0xbe44b86d	-0.19210978
45	0x3ea69038	0.32531905
46	0x3a81fd65	0.0009917436
47	0xbe8cae5d	-0.2747678
48	0x3c37af37	0.011211208
49	0x3dfc00b0	0.12304819
50	0x3d1a089d	0.03760587
51	0x3e9e5776	0.30926102
52	0xbd579c65	-0.052639384
53	0xbe9a6675	-0.30156294
54	0x3e893518	0.2679832
55	0x3de8617b	0.11346718
56	0x3beec57b	0.007286725
57	0xbec092ff	-0.3761215
58	0xbde93388	-0.11386782
59	0xbdb06f17	-0.08614939
60	0xbc865ebe	-0.016402598
61	0xbeeafd7a	-0.45896512
62	0xbcf97c73	-0.03045485
63	0x3ec8d082	0.3922158
64	0x3e1635dd	0.14668985
65	0xbc9be375	-0.019029358
66	0x3e37d20a	0.17951217
67	0x3e05cb9a	0.13065949
68	0xbe9be7c6	-0.30450267
69	0x3ddb1d3d	0.10698936
70	0x3e1cc2d6	0.15308699
71	0xbd2e4886	-0.042549632
72	0xbd4f626e	-0.05063098
73	0xbd0e2e35	-0.034712035
74	0xbd95fb3e	-0.07323311
75	0x3d93a2c3	0.07208779
76	0xbd6732ee	-0.056445055
77	0x3d41de73	0.047331285
78	0xbe466af4	-0.19376737
79	0x3a9731d9	0.0011535242
80	0xbe8f6ff2	-0.28015095
81	0xbd7f0b3f	-0.062266584
82	0x3d3de420	0.046360135
83	0xbd52f6a3	-0.051504742
84	0xbeac09e0	-0.33601284
85	0x3e5f5103	0.21808247
86	0xbf021764	-0.5081694
87	0x3dcd0300	0.10010338
88	0xbfaa3a18	-1.3298979
89	0xbdec518b	-0.115389906
90	0x3dba2368	0.090887845
91	0xbe969421	-0.29409888
92	0x3dc6412a	0.09680398
93	0xbdc149ae	-0.094378814
94	0x3e32a0c4	0.1744414
95	0x3e08a04f	0.13342403
96	0x3ccaad0b	0.024740716
97	0xbd3b44b2	-0.04571981
98	0x3e04ecf1	0.12981011
99	0x3e95ecfe	0.29282373
100	0x3ea35c70	0.31906462
101	0x3e18fa4c	0.1493923
102	0x3e27f0b6	0.16400418
103	0x3ded4648	0.11585671
104	0x3d302d53	0.043011975
105	0xbe8ab1a4	-0.27088654
106	0x3cd612c1	0.02613199
107	0x3e2980f5	0.165531
108	0xbbc382ea	-0.005966534
109	0x3eac51b4	0.33656085
110	0xbda0d7db	-0.07853671
111	0xbe39653c	-0.18105024
112	0xbcb49746	-0.022044789
113	0x3e96f929	0.2948697
114	0xbd2d79e5	-0.042352576
115	0x3e10667f	0.14101599
116	0x3e229c94	0.15880042
117	0xbd8bf458	-0.06833714
118	0x3e12a603	0.14321141
119	0xbca0dec8	-0.01963748
120	0x3e16c87c	0.14724916
121	0xbe75c7ad	-0.24001952
122	0xbf08add5	-0.53390247
123	0xbcf4c8bd	-0.029880876
124	0x3df2784a	0.118393496
125	0xbf4fa8e2	-0.8111707
126	0x3e17677f	0.14785574
127	0x3ea103d4	0.31448233
128	0xbd7eacc9	-0.0621765
129	0x3dc6e2a1	0.09711195
130	0x3da640d5	0.081178345
131	0xbc760970	-0.0150168985
132	0xbefe8a78	-0.49715018
133	0x3b110c76	0.0022132671
134	0x3d99ef6b	0.075163685
135	0xbdd53281	-0.104100235
136	0xbdac9d1e	-0.08428405
137	0xbd9e4a6b	-0.07729038
138	0x3de26207	0.110538535
139	0x3aaab8bb	0.0013025025
140	0x3e1e1b3d	0.15440078
141	0x3d03e474	0.03220029
142	0xbe80132f	-0.25014636
143	0x3de062d7	0.10956352
144	0xbe974b09	-0.29549435
145	0x3e0105c8	0.12599862
146	0xbd26f55c	-0.040761337
147	0xbd6c4f82	-0.057693012
148	0xbe91971e	-0.28435606
149	0x3e8f9421	0.280427
150	0xbed6b24c	-0.41932905
151	0x3d7201ba	0.059083678
152	0xbfa7887e	-1.3088529
153	0x3de1a3fb	0.11017605
154	0x3bd7ab6c	0.0065817144
155	0xbec88935	-0.3916718
156	0x3e3f9298	0.18708265
157	0xbc7486b5	-0.014924695
158	0x3e263d2c	0.16234273
159	0x3db85de6	0.09002285
160	0x3cc044d2	0.023470316
161	0x3e08b099	0.13348617
162	0x3e254b5a	0.16142026
163	0x3c437b46	0.011931246
164	0x3eb91651	0.3614984
165	0x3e4b9986	0.19882783
166	0x3cef6b4d	0.02922597
167	0x3cea94b0	0.028635353
168	0xbd861183	-0.06546309
169	0xbe7f2ffd	-0.2492065
170	0x3d1fa67c	0.03897713
171	0x3db8343b	0.08994337
172	0xbd6367bc	-0.05551885
173	0x3e5dd8bc	0.21664709
174	0xbca83762	-0.020534221
175	0xbe2ddec6	-0.16979513
176	0x3e0b84d6	0.13624892
177	0x3ea56c6b	0.3230928
178	0x3e078def	0.13237737
179	0x3e5aac20	0.21354723
180	0x3def549f	0.11686062
181	0x3dea04a7	0.114266686
182	0x3e389e83	0.18029217
183	0x3e30bcde	0.17259547
184	0x3cac7a1c	0.02105432
185	0xbd908248	-0.07056099
186	0xbed790ad	-0.42102566
187	0xbe30775c	-0.17233032
188	0x3d4e315f	0.050340053
189	0xbf1e7faf	-0.6191358
190	0x3dee616d	0.11639676
191	0x3ea26b60	0.31722546
192	0xbdd514f1	-0.10404385
193	0xbdcdc575	-0.100474276
194	0xbd45cd0e	-0.04829126
195	0x3d973808	0.07383734
196	0xbeb4b7ba	-0.35296422
197	0x3e175034	0.14776689
198	0xbc40fcbd	-0.0117790075
199	0x3d3cc992	0.04609067
200	0xbd7dbd44	-0.061948076
201	0x3ddb941f	0.10721611
202	0xbda87fd7	-0.082275085
203	0x3dd33df2	0.103145495
204	0x3e0343d9	0.1281885
205	0xbdaaa0e9	-0.083314724
206	0xbe722077	-0.23645197
207	0x3de3b2fd	0.11118124
208	0xbed771c4	-0.42078984
209	0xbd960fab	-0.07327207
210	0xbccbb8e8	-0.024868444
211	0x3e8120ea	0.25220424
212	0xbe64ce99	-0.22344436
213	0x3e8c59cd	0.27412263
214	0xbefaa102	-0.48950964
215	0xbd67ab73	-0.05655999
216	0xbf61165b	-0.87924737
217	0xbcd5e681	-0.02611089
218	0x3e3cb756	0.18429312
219	0xbf100e42	-0.56271756
220	0x3dbc673f	0.0919938
221	0x3c97a6dc	0.018512182
222	0x3e015840	0.12631321
223	0x3e2262b4	0.15857965
224	0xbcd031ac	-0.02541431
225	0x3e24f15e	0.161077
226	0x3ca34723	0.019931382
227	0x3edc5594	0.4303404
228	0x3f25a1cc	0.6470001
229	0x3dde7483	0.108620666
230	0x3e815d15	0.25266328
231	0x3ddec3c1	0.10877181
232	0xbd5a3bcf	-0.053279694
233	0xbe8fbe7d	-0.2807502
234	0xbe1e699c	-0.15469974
235	0x3e91211f	0.28345582
236	0x3d99c0bc	0.07507464
237	0x3ebb2a2a	0.36555606
238	0x3d26b458	0.040699333
239	0x3aec6b30	0.0018037315
240	0x3dd25990	0.10270989
241	0x3f1c9b44	0.61174417
242	0x3e3a040d	0.18165608
243	0x3ecea591	0.40360692
244	0x3e228956	0.15872702
245	0x3e5e432d	0.21705313
246	0x3e9fb672	0.31193882
247	0x3c7b9a34	0.015356589
248	0x3c5bb356	0.013409456
249	0xbdc2ee44	-0.09518102
250	0xbeb3bf58	-0.3510692
251	0xbe2f6cb5	-0.17131312
252	0x3e212c46	0.15739545
253	0xbf3fb7cc	-0.74889827
254	0x3e2a982c	0.16659611
255	0x3f10b6c7	0.56528896

lin.bias f4 [5]
0	0x3e1c78f8	0.15280521
1	0xb9a0dd52	-0.00030682475
2	0x3e18a894	0.14908057
3	0xbd0b18c3	-0.03395916
4	0x3c872989	0.016499298
